checkpoint3.pth (torch, 107888 bytes, 8 tensors)

fc1.weight f4 [128, 8]
000000 fb 2d 71 3e 58 4a a2 3e bb fc 96 be 5b 8b d5 3e
       0.23552696 0.31697345 -0.29489693 0.41707882
000010 0b 0f 82 be 36 37 c5 3e 2d 4b 29 bd 4e 72 97 3e
       -0.25402102 0.38518685 -0.04133146 0.29579395
000020 a9 9c af 3f 9b b3 21 be e0 a4 4f 3f 98 95 8e bd
       1.3719684 -0.1579117 0.81110954 -0.069621265
000030 25 da c4 bd 7a 19 3b 3e 1a 64 a1 3d ce 25 ac bc
       -0.0961192 0.18271437 0.07880421 -0.02101412
000040 6c fe 2e 3e a8 60 bf bd ea 2a 04 bf 81 a0 28 3e
       0.17089242 -0.093446076 -0.5162798 0.16467477
000050 41 15 8d be 47 6e be bd ea bf 76 bc 36 44 be 3e
       -0.27555278 -0.092983775 -0.015060404 0.37161416
000060 26 3e 7f bf 67 13 dd 3d dd 84 0f bf ce 93 87 be
       -0.99704206 0.10794716 -0.5606211 -0.26479954
000070 52 3b e3 3e 4b c1 95 be 4e 47 59 3d 67 31 bc bd
       0.44381195 -0.29249033 0.053046517 -0.0918911
000080 f3 71 21 3f 0a e5 94 bd b7 f8 bd 3e f9 e8 18 3e
       0.630645 -0.07270248 0.37103817 0.14932622
000090 23 28 87 bd 5f fe 23 3f a3 57 76 3e e7 21 9f be
       -0.06599452 0.64060014 0.24056868 -0.31080553
0000a0 c6 cb 21 bd eb 9a 27 3c 3d 3a 20 bd 2a ec 50 bd
       -0.039500974 0.010229806 -0.03911804 -0.051006474
0000b0 a5 75 c8 3f a2 f9 7d bd 1c b7 88 bd 35 56 24 be
       1.5660902 -0.062005647 -0.0667555 -0.1604851
0000c0 2a 86 cf 3e 1b d0 51 bf cc 1d 44 bf 92 d2 25 bf
       0.40532047 -0.8195817 -0.76607966 -0.6477443
0000d0 c7 1b c9 be 3f 81 9b 3e 33 82 40 3e 01 66 35 3e
       -0.39279005 0.30372044 0.18799667 0.17714693
0000e0 c8 75 e5 3d 05 15 cd be b0 44 af 3e 53 d2 32 bf
       0.112041056 -0.400551 0.34232092 -0.6985218
0000f0 36 c8 cb be 4c ba d7 be 5c 69 84 3b 33 78 7f bd
       -0.39801186 -0.4213432 0.00404088 -0.06237049
000100 08 23 27 be 40 01 8b be a5 ba 5e 3f 48 a7 c1 be
       -0.16321957 -0.2714939 0.87003547 -0.37822938
000110 65 48 bd be bb f8 8b 3d e8 a2 02 3e 84 01 14 3e
       -0.36969295 0.06834551 0.12757456 0.14453703
000120 48 4d 09 3f 75 36 81 be 45 d1 87 bf 9b 22 46 bf
       0.53633547 -0.2523686 -1.0610739 -0.77396554
000130 a1 06 cb 3e 57 82 4e 3e ce bb 31 bb ca b4 75 3e
       0.39653495 0.20166908 -0.0027119997 0.23994747
000140 db 37 82 be 8b 4d 25 c0 70 80 16 3e 3d 36 74 bf
       -0.2543324 -2.5828578 0.14697433 -0.9539526
000150 6c 93 09 3f 98 e7 12 be 39 45 a3 3d 10 93 7b 3b
       0.5374057 -0.14346159 0.079721875 0.0038387217
000160 b0 8b 14 be 0d f4 7c 3c a3 58 54 3e f8 e6 fe be
       -0.14506412 0.015439046 0.20736937 -0.4978559
000170 7c 68 55 bc 67 a8 7f 3e ff 68 40 3e 5f 47 4e be
       -0.013025399 0.24966584 0.18790053 -0.20144413
000180 05 21 b9 3e 1d da 05 be 1c d3 a0 3e 80 3b 6c bf
       0.36158004 -0.13071485 0.31411064 -0.9227829
000190 d1 de 30 be b4 e5 37 be 47 c7 f2 be 1c 19 1c bf
       -0.17272498 -0.17958719 -0.47417662 -0.60975814
0001a0 5e a9 35 be 83 7f ef be e6 8c 63 bf d9 e4 f8 be
       -0.1774039 -0.4677697 -0.8888687 -0.48612097
0001b0 83 49 7c be a7 9d 27 be f0 0c c9 3e 3b 21 a7 bd
       -0.24637417 -0.16368733 0.39267683 -0.08160635
0001c0 9a 67 05 bf f7 87 cf be 47 7d 14 be 83 d8 0d bf
       -0.5211121 -0.4053342 -0.14500915 -0.55408496
0001d0 61 48 63 3e 5f e4 28 bb ab 22 02 bf 74 ad 1c be
       0.22195579 -0.0025770885 -0.5083415 -0.15300542
0001e0 b7 d3 9f 3e e2 23 01 be 92 5c 3b 3d 84 fa 20 be
       0.31216213 -0.12611344 0.04574258 -0.15720564
0001f0 61 51 9b be 49 6d f5 be bd 2a 3e bf b0 70 6b be
       -0.30335525 -0.4793494 -0.74283963 -0.22992206
000200 a5 0a 3f 3f fc 2d 51 be 39 1a 39 3f 7e 6f 26 bd
       0.7462562 -0.20427698 0.7230564 -0.04063367
000210 4e 74 1a bf ca c9 a8 3e 06 ea a3 3e 7a 2a cc be
       -0.60333717 0.32966453 0.32014483 -0.39876157
000220 db fe 48 bf b1 b2 19 bf 66 7a 98 3c 92 4b f7 be
       -0.7851388 -0.60038286 0.018613052 -0.48299843
000230 ec 51 28 3e ed 72 3e 3d 0e 71 0b 3d 39 58 29 bf
       0.164375 0.04649632 0.034043364 -0.6615024
000240 02 9b e8 3b 3f 5c 8b 3e a9 07 0a 3f 98 be 66 be
       0.0070985565 0.27218816 0.5391794 -0.22533643
000250 8b 4b 14 3f 8a d3 b2 be 2c 15 c1 3e b3 aa fc be
       0.5792777 -0.34927016 0.37711465 -0.49348983
000260 a5 a4 0e be 19 89 59 be c2 1f a8 3e 34 7e 4a bf
       -0.13929994 -0.21243705 0.3283673 -0.7909882
000270 de 67 da 3d c4 bf 84 be 0e 7f 38 3e fe 63 78 be
       0.10664342 -0.25927556 0.18017218 -0.24256894
000280 f1 04 26 3f a3 f6 84 bf fd 5b 00 3f d6 42 80 be
       0.6485129 -1.0387768 0.5014036 -0.25050992
000290 65 61 e5 3d 7c d6 ce bd c6 e8 9a be 5e 19 ba 3e
       0.11200217 -0.100995034 -0.30255717 0.3634748
0002a0 96 f8 2e 3e 0c 87 d0 bd 84 56 03 3f b7 04 0c 3e
       0.17087016 -0.10182008 0.5130389 0.13673674
0002b0 01 6e 20 3f f3 d2 ef 3e ff 99 05 3d 9b 8e 6b be
       0.6266785 0.4684063 0.032617565 -0.23003618
0002c0 22 3c 82 bf 39 cf 5f 3e 07 b9 9f be c1 d3 98 be
       -1.0174601 0.21856393 -0.31195852 -0.29849055
0002d0 d5 40 36 be ae 59 01 bc f0 0b 3d 3e 10 84 19 bf
       -0.17798169 -0.007894916 0.18461585 -0.59967136
0002e0 cc 04 ed 3d 71 3e 8b 3e f6 4f 1a be 86 85 fd bd
       0.115731806 0.27196077 -0.15069565 -0.12378983
0002f0 cc c6 2a bf ca d9 ba be 8a 01 05 be 3e ac 2f bf
       -0.6670959 -0.36494285 -0.12988868 -0.68622196
000300 c1 c6 b6 3e b6 40 5f 3d e1 15 04 bc 80 1a 32 3e
       0.35698512 0.054505073 -0.008061857 0.17392921
000310 99 e2 6d bd cb ab 0a 3d e6 05 c2 3e ee 5f b0 be
       -0.05807743 0.03385524 0.37895125 -0.3444819
000320 54 d4 a0 3d 79 7f f7 bf cc 3c 0b 3e d7 23 12 3c
       0.078529984 -1.9335777 0.13597411 0.008919678
000330 89 43 14 bf 2f 06 c1 be e7 6d a0 bf e2 4d bc 3d
       -0.5791555 -0.3770003 -1.253354 0.091945425
000340 ad d5 14 be d0 4d a3 be a7 ee 8e 3e 71 4e 31 3f
       -0.14534636 -0.31895304 0.27916452 0.6926032
000350 77 f1 52 be df d6 19 be d7 55 96 be fe 0c be 3e
       -0.20599924 -0.15023373 -0.29362366 0.37119287
000360 70 c3 be 3c bb 57 85 3d 1c 67 3a bf 14 ee 2f bf
       0.023286551 0.06510874 -0.7281358 -0.68722653
000370 eb 6a 68 be 2e cb 7f be 39 bc 59 be 7b 48 ad be
       -0.22697036 -0.2497985 -0.21263207 -0.3384436
000380 cf 10 89 bd 9f 65 86 3e 4c 50 9d 3c b2 aa a9 3e
       -0.06692659 0.26249406 0.019203328 0.33138043
000390 5a 9e 11 bf 4d 45 81 bf 77 b8 60 be e5 1c 98 3e
       -0.5688225 -1.0099274 -0.21945368 0.29709545
0003a0 aa b4 32 3e d7 d9 d1 3e f2 e8 ca 3d ba 84 0d 3f
       0.1745173 0.4098651 0.09907712 0.5528065
0003b0 c5 af 03 bf 4b b4 ce be 9d 52 f6 3c d0 d2 80 bf
       -0.5144008 -0.40371928 0.03006869 -1.0064335
0003c0 e1 d8 ef 3e 05 1e b8 3d 67 21 d6 be 7e 9f e9 bd
       0.46845153 0.08990101 -0.4182236 -0.11407374
0003d0 ea 3e 65 3d e4 e5 1f bf 23 7a b3 be 0d 5a f0 be
       0.055968203 -0.6246016 -0.3505412 -0.46943703
0003e0 02 7a b4 bd 4d 14 fc 3e a8 16 ec 3d 9a 01 d8 be
       -0.08812334 0.49234238 0.11527759 -0.42188722
0003f0 a9 14 30 bf dc b4 eb be 27 95 1e be 52 a8 57 bf
       -0.68781525 -0.46036422 -0.15486585 -0.8424121

fc1.bias f4 [128]
000000 a6 28 26 3f e9 53 e3 bc 23 e3 44 3e 7a b6 f7 bd
       0.64905775 -0.027749972 0.19227271 -0.120953515
000010 82 b9 60 be 8c a8 36 bd b1 29 a7 3e ae 93 53 be
       -0.21945766 -0.044594333 0.32648996 -0.20661804
000020 17 c3 26 be 5b 4c 9e be b4 aa 5f 3e 13 61 e9 3e
       -0.16285358 -0.3091763 0.21842462 0.45581874
000030 db 8e ee 3d 60 c0 c7 be c1 9c 93 3e 24 8f 66 be
       0.11648341 -0.39013958 0.2883053 -0.22515541
000040 9a cd e7 be 08 1d d5 3e bb 34 e2 bc fc 44 d4 3d
       -0.4527405 0.41623712 -0.027613034 0.1036472
000050 f0 29 fd be 67 1e 04 be 0d 1c 09 bf da 32 b1 3d
       -0.49446058 -0.12902223 -0.5355843 0.08652277
000060 2a c5 d3 bd 25 a9 70 3e 29 63 ac 3a 74 76 fa bd
       -0.103403404 0.23502024 0.0013152111 -0.122296244
000070 20 15 05 3d 16 55 ff be 9d 34 01 3e b2 3b 5e bd
       0.03249085 -0.49869603 0.12617727 -0.05425615
000080 0a da 97 3e 87 5c 1f bf 89 a0 f0 be 8d bc 7a be
       0.29658538 -0.6225056 -0.4699748 -0.24485989
000090 40 74 e2 be 3b f0 80 3e 5b 01 a3 bd d7 91 04 3e
       -0.44229317 0.2518328 -0.07959243 0.12946258
0000a0 1f b7 a9 be 6d 5a 79 be 52 03 e3 be e9 2a c4 bd
       -0.33147523 -0.24350901 -0.4433847 -0.09578497
0000b0 54 f2 53 3e 50 af 53 bc c5 c6 1c 3f a1 77 4b 3e
       0.2069791 -0.012920216 0.612408 0.19869854
0000c0 e1 a4 ab be 28 42 8e bc 98 43 f8 be dd 96 af be
       -0.3352423 -0.01736553 -0.4848907 -0.34294787
0000d0 73 f1 2f be cb 8c d4 be 12 9b e1 be c7 91 8d be
       -0.1718195 -0.41513667 -0.44063622 -0.27650282
0000e0 46 cb 01 be fe 99 cd be 95 bd dc be 9d e9 5f bf
       -0.12675199 -0.4015655 -0.4311339 -0.8746584
0000f0 00 75 5d bd c8 b2 e3 3e 6e 25 f0 3e ae 0c 42 3e
       -0.054066658 0.44472337 0.46903557 0.1895015
000100 c2 8a cf bd 9e 14 c4 be eb 66 9f be 97 16 57 3d
       -0.10133888 -0.3829698 -0.31133208 0.052511778
000110 20 7f 3f bd 56 3d 86 be 18 1b 21 bc f2 04 8a bd
       -0.046752095 -0.2621867 -0.00983312 -0.067392245
000120 7f b5 f1 be e9 58 79 3e c9 c1 28 3e 8b ae ae 3e
       -0.47208783 0.24350323 0.16480173 0.3411754
000130 09 98 62 be 9a e2 d4 3e c4 5d 9b be 2a 7d e3 3e
       -0.2212831 0.41579133 -0.30344975 0.4443143
000140 fb 51 3b bf d1 ec cc bd 90 5f 47 3d e4 32 bf bd
       -0.7317197 -0.10006107 0.04867512 -0.093358785
000150 25 0a 3c 3e 74 64 90 3e aa 0f c0 3d 88 16 3a be
       0.18363245 0.2820164 0.09377988 -0.18172657
000160 6e 8b d8 bd dc 51 1b 3f fc 02 c1 ba d8 a0 c4 be
       -0.10573469 0.6067178 -0.0014725621 -0.38403964
000170 07 59 ae bc 8c 1e 91 3e 40 4e e3 ba 4d 2b ba 3d
       -0.021282686 0.28343618 -0.0017342046 0.0909029
000180 25 a7 16 be 8c 0e a5 be 49 fe be 3d c2 95 a2 bd
       -0.14712198 -0.3223766 0.09325845 -0.0793872
000190 d7 ef cf 3e a0 56 fd be a8 aa 63 bd d3 77 98 3e
       0.4061267 -0.49480152 -0.055582672 0.2977892
0001a0 eb 43 a6 bc 87 dc 85 3d 0c 2f 41 bf 42 88 e3 3e
       -0.020296058 0.06536203 -0.7546241 0.44439894
0001b0 67 0a b4 3d 21 9c 9e be 5f 53 eb 3d e2 08 a5 be
       0.087910466 -0.30978492 0.11490511 -0.3223334
0001c0 10 4f 93 be f9 e0 a1 3e 32 6d a7 be 17 e6 d8 be
       -0.28771257 0.31616953 -0.32700497 -0.42363045
0001d0 5b 42 ab be a2 7e a8 be 11 47 b8 be 55 c2 e7 be
       -0.33449063 -0.32909113 -0.3599172 -0.4526545
0001e0 6f 4b cd be 7b 36 0c be b3 53 a1 3d 86 7e 12 bf
       -0.40096614 -0.13692658 0.078772925 -0.5722431
0001f0 07 f9 19 3e df 0d 17 3e e1 53 a3 be f8 e1 98 3e
       0.15036403 0.14751385 -0.31899932 0.298599

fc2.weight f4 [128, 128]
000000 93 6f ee 3d f4 ea 89 3d f6 ec 06 bd cc 94 e7 bd
       0.11642375 0.06734267 -0.032940827 -0.113076776
000010 9b a4 41 3f 82 f4 83 be 7a 99 81 3e 57 e4 cd 3e
       0.75641793 -0.25772482 0.25312406 0.40213272
000020 b2 04 17 be 78 f7 53 3e 92 59 a5 3e 68 53 c8 3e
       -0.14747885 0.2069987 0.322949 0.39126134
000030 de 9c 79 3e 05 35 7f 3e 10 e8 f3 3d 89 3b 91 be
       0.24376246 0.24922569 0.11909497 -0.28365734
000040 e1 54 8c 3e 51 d3 85 3e 8e 9e 73 be f7 4a 95 3e
       0.27408507 0.26137784 -0.23790953 0.29158756
000050 df bb 49 3e c0 62 df 3c c9 f4 13 3f d2 b9 36 be
       0.19700573 0.027268767 0.5779539 -0.17844322
000060 f4 7b 91 3e 1a 27 62 3e 2c cf f2 bc ed c4 e0 be
       0.2841488 0.22085229 -0.029639803 -0.43900242
000070 d9 91 83 bb a1 88 49 be f2 27 0f bf ce f9 c9 bd
       -0.004015189 -0.19681026 -0.55920327 -0.098620996
000080 22 96 6d 3d 4b 03 ff be fd d3 1e bd f7 a1 d9 3e
       0.058004506 -0.498072 -0.038776387 0.42506382
000090 2e 5f a2 bc e0 02 70 3e 5f a2 98 ba ca 03 a8 bc
       -0.019820776 0.23438597 -0.001164507 -0.02050962
0000a0 f6 1b cc ba a2 12 b6 bd 72 66 87 bc ba bc fc be
       -0.0015572298 -0.08890273 -0.016528342 -0.49362737
0000b0 2e 1c de bd 58 ac 6a 3e 3b 44 54 be 0b f7 83 3a
       -0.108452186 0.22917306 -0.20729153 0.0010068131
0000c0 7e 9f 04 be 3f 5f 22 bd 81 2c 1e bd 27 69 b7 3e
       -0.12951466 -0.039641615 -0.03861666 0.35822412
0000d0 3a 82 e6 be 17 0d b7 be 79 de 95 3e 77 20 2b be
       -0.4502123 -0.35752174 0.29271296 -0.16711603
0000e0 d8 fc 17 3e 08 fa b5 3e 2c ca aa 3e 90 90 f1 be
       0.14842546 0.3554232 0.3335737 -0.47180605
0000f0 c9 61 11 3e 0d 09 07 3e e6 85 1c be c1 56 49 bf
       0.14197458 0.13187046 -0.15285453 -0.78648
000100 1d 8d b8 bb 52 a7 e3 be 8b 4c 63 3e 1c 4b f0 bd
       -0.0056320564 -0.44463593 0.22197168 -0.11733076
000110 95 0c 3d bf 93 88 ad 3e 9d ed 19 bf 41 1f d6 be
       -0.73847324 0.3389326 -0.60128194 -0.4182072
000120 78 07 a7 3e a2 1a 2f 3e b2 c1 aa bd 44 1c 20 be
       0.32622886 0.17100003 -0.08337726 -0.15635782
000130 ae 3e 87 3e f5 03 21 3e 12 30 dd 3e 96 c8 b4 bd
       0.26415008 0.15724166 0.43200737 -0.08827321
000140 d0 49 89 be 4b 39 12 3f ae 9e ee be 9b 9f d6 3d
       -0.26814127 0.5711867 -0.46605438 0.10479661
000150 3c b0 ae bf 41 fc aa 3e a9 44 f0 3d 3b 95 19 be
       -1.3647532 0.3339558 0.11731846 -0.14998333
000160 12 8c 31 bf 61 d4 85 bd 62 5d 19 be 55 a0 15 39
       -0.69354355 -0.06534649 -0.14977029 0.00014269476
000170 34 ed ba bd 9c d8 87 3e 9c bc e1 be ad 2b 03 3f
       -0.09127274 0.26532447 -0.4408921 0.5123852
000180 92 35 4f bf 5e 4e f1 bd f6 5b 14 3f 26 ed bd 3e
       -0.80941117 -0.117825255 0.5795282 0.37094992
000190 94 e2 c9 bd c9 2e 0a 3f 30 74 c2 3e b8 df 81 3e
       -0.098576695 0.5397764 0.3797927 0.25365996
0001a0 af a9 d5 be b4 84 c2 3e ac 86 ab bd 8c 0f af be
       -0.4173102 0.3799187 -0.08375296 -0.3419155
0001b0 51 27 b2 bc 86 44 ba 3e 04 db db 3e f4 fe 38 be
       -0.021747263 0.36380404 0.42940533 -0.18066007
0001c0 b5 75 b1 3e 88 84 3c be 70 4f a0 3e 6f 14 35 3e
       0.34660116 -0.18409932 0.31310606 0.17683576
0001d0 d0 cb 00 bf 0d c4 38 bf 5c 85 1c be 48 0c 4a bd
       -0.50310993 -0.7217415 -0.15285248 -0.04932812
0001e0 ab af 4b 3e 8f b6 80 3e 0f 8f 1a bf 16 e6 ef 3e
       0.19891231 0.2513928 -0.6037454 0.4685523
0001f0 b6 74 f7 3e af 5a 0b be e6 6a 8f 3d f7 7b ac bf
       0.4833123 -0.13608812 0.07002811 -1.3475331
000200 9a 30 d7 be 2a 76 c4 3c d8 48 35 be 53 82 2c 3c
       -0.42029268 0.023982126 -0.17703569 0.010529119
000210 f1 ce 20 bf 4f da a8 be 36 34 0a bf a7 91 40 be
       -0.6281577 -0.32979056 -0.5398592 -0.18805562
000220 7c 60 b9 3c 50 fa 06 bf 75 ae 7e be fa 81 1c 3d
       0.022629015 -0.52725697 -0.24871238 0.038209893
000230 a7 7e de bd ec 94 0c be 42 7f d4 3d de 6c 0c bd
       -0.10864001 -0.13728684 0.10375835 -0.03428351
000240 ba 40 8b 3e fe 96 fd bc e4 8a a9 be f3 98 b2 bd
       0.2719782 -0.030955788 -0.33113778 -0.08720579
000250 87 5a 43 3d 81 6a bf 3d cc 19 b8 3d 3f fd 66 3e
       0.047693755 0.09346486 0.08989295 0.22557543
000260 82 b2 e0 be a6 bd 98 be b7 b8 8d 3e 1a 1d f7 bd
       -0.4388619 -0.2983219 0.2767999 -0.120660976
000270 69 c2 c2 3e 59 35 b4 3e 50 68 c5 be 3a a0 45 3e
       0.38038948 0.3519695 -0.38556147 0.19299403
000280 ca c6 05 bf 11 9c 67 be 97 76 b9 3d 43 c7 0d 3f
       -0.52256453 -0.22618128 0.09055822 0.55382174
000290 c0 e9 6c 3d 59 a5 5e 3e 29 6f 9e bf 19 0b 0f 3e
       0.05784011 0.21742763 -1.2377673 0.13969077
0002a0 60 83 52 3d 31 19 3d be 70 c6 a6 bf 24 62 30 bd
       0.05139482 -0.18466641 -1.3029308 -0.043062344
0002b0 03 dd 80 be 11 f3 f3 bd f0 9c 2b 3d a9 b9 89 3c
       -0.2516862 -0.119115956 0.041897714 0.016812162
0002c0 70 05 21 bf 1c 8a 8c 3e f5 f6 4e 3e f0 79 53 3e
       -0.6289892 0.2744912 0.20211394 0.20651984
0002d0 24 c8 c5 3c 39 00 1b 3d 3e b9 c4 3c 98 df c4 bd
       0.024143286 0.03784201 0.024014112 -0.096129596
0002e0 44 ac c0 bd f2 bd 96 bd 20 ce 46 be ef f0 a4 be
       -0.09407857 -0.07360448 -0.19414568 -0.32215068
0002f0 d5 81 60 3e 82 4b fb bd 93 aa 01 3d 74 45 13 bf
       0.21924527 -0.12270261 0.031656813 -0.5752785
000300 94 3b e1 be da d7 c9 be 04 5d e3 be d1 dc da 3d
       -0.43990767 -0.39422494 -0.44406903 0.10686649
000310 fd 86 8e be e2 27 f0 be 60 67 42 be 83 eb de be
       -0.27837363 -0.46905428 -0.18984747 -0.43539056
000320 49 b8 d0 bd 86 2c 89 be 26 84 a2 3e 30 28 dc 3d
       -0.101913996 -0.2679178 0.31741446 0.10749853
000330 4b f0 f8 3d a7 29 df 3e 9a 85 3b 3f d4 b4 a7 3b
       0.12155207 0.43586466 0.73250735 0.005117992
000340 17 10 f5 bd d9 4e 47 3e 09 b8 fc be d0 cc 4e bd
       -0.119659595 0.19463672 -0.49359158 -0.050488293
000350 1c 32 92 3e 82 ad 96 be 29 ea 89 bf 77 13 1b bc
       0.28553855 -0.2942925 -1.0774585 -0.00946509
000360 e6 11 d7 3d ee 83 76 3d 75 24 25 be 01 64 3b 3e
       0.10501461 0.06018441 -0.16127189 0.18299867
000370 36 cf 1d 3f 98 88 a7 bd d1 fc 19 bd f6 89 27 bf
       0.61644304 -0.0818035 -0.03759462 -0.65444887
000380 7a 17 d7 3e 93 94 2a 3b ca 08 48 be ef 08 00 3e
       0.420101 0.0026028499 -0.19534603 0.12503408
000390 7f ce 8b bd 8b 16 43 3e 30 21 cf 3e 7c f2 18 3d
       -0.068264954 0.19051568 0.40455008 0.037340626
0003a0 ad 84 94 3e 96 55 72 be 6d 47 cf be 21 79 71 be
       0.29007474 -0.23665461 -0.4048418 -0.23581363
0003b0 ee 8b c0 3e 38 0b c2 be d3 ed 0a bf c3 f4 f0 3e
       0.37606758 -0.37899184 -0.5426914 0.47061738
0003c0 45 69 10 3e cc a9 42 3e 82 2e 58 3d 9a 62 67 3e
       0.14102657 0.19010085 0.05277873 0.22596207
0003d0 69 f3 90 3e fd f3 ee 3d 99 d7 85 bf bb f0 26 bc
       0.28310707 0.11667631 -1.045642 -0.010189231
0003e0 78 20 c5 be 00 2d 8f be 04 81 77 be 80 f0 95 3d
       -0.38501334 -0.2796402 -0.2417031 0.07321262
0003f0 80 46 a7 be 80 55 c2 be e5 e3 68 3d 3c 3a ee 3e
       -0.32670975 -0.37955856 0.056857962 0.46528804

fc2.bias f4 [128]
000000 c0 5b e5 3c e8 07 bf 3d 6d 0a f9 bd 27 f1 53 be
       0.027997851 0.0932768 -0.12160192 -0.20697461
000010 82 8c 74 3e 38 01 ae bd 24 ff 27 bd ae d6 d2 3d
       0.23881724 -0.08496326 -0.041014805 0.10294853
000020 9b a1 66 be 9d 71 bf 3e 4a 80 44 bd a6 55 05 3f
       -0.22522585 0.37391368 -0.04797391 0.52083814
000030 7a 92 38 3e 0c 56 35 bd 1c 6f 47 be 80 65 35 be
       0.18024626 -0.044271514 -0.19475979 -0.177145
000040 8d e7 0a be a9 04 94 3d 19 0c 89 3e 3e 78 45 3e
       -0.13564892 0.07227451 0.26767042 0.1928415
000050 f1 b7 24 be e3 d7 19 3e 83 f3 59 bd 6f 38 01 3f
       -0.16085793 0.1502376 -0.053210746 0.50476736
000060 d2 1d f5 bd 0f cd bc 3c 8b 54 06 be d2 95 79 be
       -0.119685784 0.023046998 -0.13118188 -0.24373558
000070 61 c1 19 be c7 ef f7 3b 3e 6e 2f be 4b 70 8c 3c
       -0.15015174 0.0075664255 -0.17131898 0.01714339
000080 3e d9 92 be 4e ee 90 bd 59 cc ad bd 34 fc b9 3c
       -0.28681368 -0.07076703 -0.08486242 0.022703268
000090 5b a9 ab bd cf 66 ae 39 68 9f 9f bd 0c 28 28 bd
       -0.08381911 0.00033264465 -0.07794076 -0.041053817
0000a0 57 2a 15 3e 33 73 aa bd 08 cb 38 be 3a c3 ad be
       0.14566933 -0.08322754 -0.180462 -0.3393801
0000b0 21 82 a1 be 8a e0 2f 3c 4d 07 2c 3e db 29 32 bd
       -0.31544593 0.010734687 0.1679966 -0.043496948
0000c0 d0 bd ed bd ce f5 60 be 72 d8 36 3e 95 48 aa bd
       -0.116084695 -0.21968767 0.17856005 -0.08314625
0000d0 2f ea 4d 3d 84 73 60 3e 8a 76 e2 be e4 e3 99 be
       0.050272163 0.21919066 -0.44231063 -0.3005668
0000e0 84 81 3b 3d dd 5c f7 bd 48 e4 23 be b0 b2 2e be
       0.045777813 -0.12078259 -0.16005051 -0.17060351
0000f0 ec a2 37 bd eb 75 40 be 25 72 db be 57 fc c2 3b
       -0.04483311 -0.18794982 -0.42860523 0.0059504914
000100 4e 3d db 3d 3b 94 0c be 62 29 9b be f4 1e d5 bd
       0.10705052 -0.1372842 -0.3030501 -0.104062945
000110 a7 00 f3 bd 6c 64 1d 3f 7b fb cf 3d 8a ba 62 3e
       -0.11865359 0.61481357 0.10155388 0.22141472
000120 99 6c e1 3b 3b 47 12 bb e6 71 c9 bd 2d 77 96 be
       0.006879401 -0.0022320289 -0.098361775 -0.293878
000130 1b ab b9 be 8f 01 90 3c c2 5f c9 bc d0 5b 82 be
       -0.36263356 0.017578868 -0.024581794 -0.25460672
000140 1d ce 9a bd d4 d5 6a bd 64 06 e1 bc cf 51 a2 3c
       -0.07558844 -0.05733283 -0.027468868 0.0198144
000150 07 14 35 3d 02 fc 02 be 58 dc 51 3d 4f b5 d8 bd
       0.044208553 -0.12791446 0.051235527 -0.10581457
000160 93 0a 1b bc 4a bc 9a be a5 0d 55 be 4b cc 6a be
       -0.00946297 -0.30221778 -0.20805986 -0.22929494
000170 9b fe 86 bd b8 6d 1e be e1 ee 84 3e 19 4f 0d 3f
       -0.06591531 -0.15471542 0.259635 0.5519882
000180 dd 1f 0c 3f 30 ce 4c be c3 6f fc bc 0f c5 55 be
       0.5473612 -0.2000053 -0.03081501 -0.20875953
000190 84 e8 df bd 12 ef a4 bc 9d d2 3f be 25 c0 5f 3e
       -0.10933021 -0.020133529 -0.18732686 0.21850641
0001a0 4b a7 c6 bc f5 c4 4a be 2b 8c 7e 3d 78 91 dc bd
       -0.024249693 -0.19801696 0.062145393 -0.107699335
0001b0 5c 6c 64 be 0e a9 07 bb 60 f8 e5 3d e5 3d 3a 3f
       -0.22306961 -0.002070013 0.112290144 0.72750694
0001c0 06 0a fd bd 46 d4 31 3d c4 e6 95 be 77 b8 fa bd
       -0.123554274 0.04341533 -0.29277623 -0.12242215
0001d0 2f 3c a5 3e 44 13 e9 3d 11 b3 23 3c e9 e1 e1 3d
       0.3227248 0.11380628 0.009991423 0.11029417
0001e0 06 a5 9f be 6f c1 14 bd ff a0 1e be d9 a9 58 bc
       -0.3118059 -0.036317285 -0.15491103 -0.013224089
0001f0 2b 9a 9b 3c 88 50 37 bc aa 65 a3 bd d3 08 b3 3c
       0.018994411 -0.011188634 -0.07978375 0.021854794

fc3.weight f4 [64, 128]
000000 32 86 47 3e f1 ac 6e bd 3c 21 97 bc dd a3 be 3e
       0.19484785 -0.0582704 -0.018448465 0.37234393
000010 e8 85 8c be 44 da 8d 3d 5c 38 bc 3c 4e e3 f2 be
       -0.27445912 0.069263965 0.022976093 -0.47439045
000020 c5 ff a3 3e 5e d6 e1 be ce a1 7a 3c fd 8f ba bd
       0.32031074 -0.44108862 0.015297366 -0.09109495
000030 6e 4d 13 be e7 77 b2 3c 0a 06 cc bd b5 c3 99 be
       -0.14385006 0.02178569 -0.09962089 -0.30032125
000040 8c be 76 3e b4 5f 6c bd 00 f5 98 be 93 b9 a8 be
       0.24096125 -0.057708457 -0.2987442 -0.32954082
000050 55 04 18 3f 72 e4 cf 3b f4 df 12 3e 8c 7c b5 bd
       0.5938161 0.0063443715 0.14343244 -0.08861646
000060 4c dd f4 3e 77 2f 3a bd 1a 3e 35 3e 45 b2 91 3d
       0.47825086 -0.045455422 0.17699471 0.0711408
000070 c5 17 b0 be d9 d8 6e be 1b 00 21 3e c3 46 41 be
       -0.34393135 -0.23324908 0.15722696 -0.1887465
000080 f3 e9 ec 3e 4b 32 e2 3e 23 46 14 bd 16 ee 3d be
       0.4627224 0.44178995 -0.0361997 -0.18547854
000090 a0 ae a6 be c4 19 16 3e 43 07 bb 3b bf 71 9c bd
       -0.32555103 0.14658266 0.005707653 -0.07638883
0000a0 41 53 1e be cd fe a7 3e ed 57 b4 3e 26 01 80 3e
       -0.15461446 0.32811585 0.35223332 0.25000876
0000b0 63 e9 38 be 4d cb f1 bb 50 50 9f 3e 1b 33 2c 3d
       -0.1805778 -0.0073789717 0.3111596 0.042040925
0000c0 37 de ce 3d 28 43 b7 3e c8 e1 c9 3e ec fa c6 bc
       0.10100978 0.35793424 0.3943007 -0.02428957
0000d0 0a 3b a9 3c d3 ce b3 3e ef 2e ab 3d 02 af 90 3e
       0.020658035 0.35118732 0.08358561 0.2825852
0000e0 43 69 2d 3e 80 a4 78 3e 20 03 24 3e 97 43 ea 3e
       0.16934685 0.24281502 0.16016817 0.45754692
0000f0 69 0c 57 bb 5a 92 aa 3e 23 0e 00 3e 49 0f bb 3d
       -0.0032813794 0.33314782 0.12505393 0.09133775
000100 b3 34 81 3d 36 4d ee bc aa e8 b8 3e 02 25 88 3e
       0.0630888 -0.029089551 0.3611501 0.26590735
000110 66 d5 aa bd 85 67 ec bd 3a e1 0d 3e 34 86 36 3f
       -0.08341484 -0.11543182 0.13855448 0.7129853
000120 8b 1d 50 bd 6f 4d 49 bd 6e 5a 1e 3c c2 be b5 3d
       -0.050809424 -0.049146112 0.009665115 0.08874275
000130 f9 a3 2c be ec 33 e1 3d 96 5c 14 3e 05 af e2 3c
       -0.16859426 0.109962314 0.14488444 0.027671346
000140 d0 4d b0 3d a9 f6 7d 3e 11 3e 7a bd 5a 87 a7 3d
       0.086085916 0.24801125 -0.061094347 0.08180113
000150 98 cb 90 bd 5e 84 f3 3d 96 6c 73 3d 8c 0c 53 bd
       -0.070700824 0.118904814 0.059429727 -0.051525638
000160 39 b1 06 bd 41 d4 80 3e 1c 8c 8d 3e bf 70 f5 3d
       -0.032883856 0.25161937 0.27645957 0.11984395
000170 26 cf 4c 3e 6b 52 0e 3f 2c 38 08 bf a5 ff ff bd
       0.20000896 0.5559451 -0.5321071 -0.12499932
000180 b0 ef 50 bd 98 31 e9 3e 79 7c 82 3e cf c2 f6 3d
       -0.051009834 0.4554565 0.2548559 0.120488755
000190 b9 dd 51 3e 6e 5f e4 be 31 5a 82 3e c6 27 8b be
       0.20494737 -0.44604057 0.25459436 -0.27178782
0001a0 e1 b6 ba bc 30 a5 68 3e 71 ea 55 3d d1 51 b4 3d
       -0.022792282 0.22719264 0.052225534 0.08804668
0001b0 40 25 fc 3d 2e 8a 1f 3f 70 67 14 3e e7 ab d8 bd
       0.123117924 0.6232022 0.14492583 -0.10579663
0001c0 3d 15 bb ba 4b 1d c1 be d8 6d a5 bc 8e 6c eb 3e
       -0.0014273297 -0.3771766 -0.02019398 0.45981258
0001d0 e4 c3 dd 3c f4 c1 03 be e1 95 64 3d a6 b0 0c bc
       0.027070947 -0.12866956 0.055807 -0.008587038
0001e0 71 e8 53 3e 56 91 13 be 85 60 61 3d e1 4b 07 3e
       0.20694138 -0.1441091 0.05502369 0.1321254
0001f0 03 6e 8d 3c 3d 66 de 3e 91 fa 62 3d fd b5 a0 3d
       0.017264372 0.43437377 0.05541474 0.078472115
000200 02 60 df 3e 06 64 d4 bd 97 d0 96 bd ea 1c 6e be
       0.43627936 -0.103706405 -0.07364004 -0.23253217
000210 98 5f de 3e a9 9b c3 be 11 ff b9 3c 62 2a df 3e
       0.43432307 -0.38204697 0.022704633 0.43587023
000220 1d a7 b9 3d 96 dc 93 3f ed 3b 85 3c 13 e4 8b 3e
       0.090650775 1.1551692 0.016263926 0.27322444
000230 35 59 18 be 50 8e 9f bc 14 e7 18 bf 71 d6 a8 be
       -0.1487778 -0.01947704 -0.597276 -0.32976106
000240 a6 d4 3f be 87 3d 3c be a2 e2 b5 3c af ef a0 3e
       -0.18733463 -0.18382846 0.022202794 0.31432864
000250 8a 92 c1 be 1e c1 ad 3e be 8d ac 3e 24 f3 b6 3d
       -0.37807113 0.339364 0.3370189 0.08933094
000260 50 7d 19 bf 14 e3 b5 3d 0e 19 c9 be c1 68 23 bf
       -0.59956837 0.08881202 -0.39276928 -0.63831717
000270 2a 79 5f be 4c ef a1 3a ea cc 4b bf 22 c9 18 bf
       -0.21823564 0.0012354641 -0.7960955 -0.59681904
000280 73 42 10 be 0d fc 36 bf 4f 88 e6 be e9 6e 1e bd
       -0.14087848 -0.7147835 -0.4502587 -0.03867999
000290 96 37 21 bd 95 7d 8b bd 18 a0 da bd e5 6a 8d 3d
       -0.03935965 -0.06811062 -0.10675067 0.06905154
0002a0 4e d7 d0 bd 41 97 b5 be e2 90 1f be af 97 0a be
       -0.10197316 -0.3546696 -0.15582612 -0.13534425
0002b0 49 36 09 bf 53 52 59 be 39 ea f5 bd 33 b1 03 bd
       -0.5359846 -0.2122281 -0.12007565 -0.032151412
0002c0 9f 1b 1e 3d 1f f8 18 be bf 48 1f be ee e5 db 3d
       0.03860056 -0.149384 -0.15555094 0.10737215
0002d0 c3 0a 03 bf f2 e1 c0 be 45 5f b3 be da d8 86 bf
       -0.51188296 -0.37672383 -0.35033622 -1.0534928
0002e0 94 e2 c3 3d 3e 9a 34 bf d4 6b 75 bd 67 ce 7c be
       0.09564701 -0.70547855 -0.059917286 -0.24688111
0002f0 94 6b c3 3d ea 48 96 bd af 21 b0 be 7e 4a 3c 3e
       0.09542003 -0.07338126 -0.344007 0.18387792
000300 d5 aa 73 bc c3 86 75 3b 20 27 88 bd 53 ae fa be
       -0.0148722725 0.0037464357 -0.066480875 -0.48961124
000310 7a 5d da 3c c3 65 00 3f cf 40 eb be 14 b7 2c bf
       0.026655901 0.50155276 -0.45947883 -0.67466855
000320 26 1a b6 3d 0e f5 eb bb 3b 73 ba 3d 57 90 fe be
       0.08891706 -0.0072008437 0.0910401 -0.49719498
000330 7b ed 86 be 63 76 b6 3e d9 2f 6e be 36 46 1b bf
       -0.26353058 0.35637197 -0.2326044 -0.6065401
000340 b3 45 95 3d e7 91 4e be 06 4b 31 3d ce 26 f9 3e
       0.07288685 -0.20172845 0.04328444 0.48662418
000350 18 55 05 3e e7 30 02 3e 19 e2 48 bd 7c 29 72 3b
       0.13020742 0.12713967 -0.04904375 0.0036950996
000360 a8 2e c4 bc 36 f0 9a 3d 98 87 6e bf f7 02 41 be
       -0.023948029 0.07565348 -0.9317565 -0.18848787
000370 1b eb 4d be 34 0d 04 bf bc c8 67 3f 8d b9 55 3e
       -0.20109217 -0.51582646 0.9054067 0.20871563
000380 a2 43 7f 3e f8 47 63 bf ba a7 ad be 40 82 ff be
       0.24928144 -0.8878169 -0.33917028 -0.4990406
000390 9d a9 62 3e 19 c8 a3 3e 64 01 06 bf f6 6c 8a 3e
       0.22135015 0.319886 -0.5234587 0.27036256
0003a0 47 57 94 3d 77 47 a8 3d 69 f6 67 bd 2f b4 b4 bd
       0.07243209 0.08216756 -0.05663148 -0.0882343
0003b0 19 f4 fe be 8e d7 83 be 33 f9 4c 3d 8d 88 1c 3f
       -0.49795607 -0.25750393 0.050042342 0.6114586
0003c0 4c de bf 3e 3d 16 a9 be 51 af 81 bf c3 9f ed be
       0.37474287 -0.3302478 -1.0131627 -0.4641095
0003d0 a2 40 cd 3e f6 95 b3 be fa 1f 9f be e2 50 36 3d
       0.40088373 -0.3507535 -0.31079084 0.04451073
0003e0 72 f8 6d bf e2 21 bf 3e ff e1 26 bd 48 1e 8d 3d
       -0.9295722 0.37330538 -0.04074287 0.06890541
0003f0 cb 38 28 be cc a4 27 bf cb 79 82 3c be bf 64 3d
       -0.16427915 -0.65485835 0.015927216 0.055846922

fc3.bias f4 [64]
000000 07 fc d6 3d 52 2f 19 3f 8e 33 8a bd c7 a7 75 bc
       0.10497289 0.5983783 -0.067481145 -0.0149936145
000010 ca 5d 14 3e 79 21 35 3d c9 4e ed bd e7 e7 32 3e
       0.14488903 0.044221375 -0.11587293 0.17471276
000020 96 d3 18 3f 01 59 97 3e ac 1e 41 bd 52 95 84 3e
       0.59697855 0.29560092 -0.04714839 0.25895172
000030 bb 63 12 be 7b 72 cb 3e 9f 8e 90 bc 27 f0 cf 3c
       -0.14295857 0.3973578 -0.017646132 0.025383068
000040 49 cf b0 be fc 75 cd bd b3 2c 60 3f 06 2d 19 3e
       -0.34533146 -0.10032269 0.87568206 0.14958581
000050 b5 8f 9e 3e c9 bf 6b 3f 45 0d bd bd 44 55 7a 3f
       0.30969015 0.92089516 -0.092310466 0.97786355
000060 e2 81 c6 bd 70 52 d5 bd 81 fe 46 3d 8e f3 5f be
       -0.09692742 -0.10416114 0.048582558 -0.21870252
000070 e5 1a 01 3d 94 61 50 3d b2 78 83 bc 56 05 5e bd
       0.03151979 0.050874308 -0.016048763 -0.054204307
000080 a7 fc bb 3d 19 66 79 be 2c e3 c2 bd c9 06 1f 3e
       0.09179049 -0.24355353 -0.09515986 0.15529932
000090 af 56 01 be e9 62 20 be 53 d0 52 bd 25 c4 a7 bd
       -0.12630723 -0.15662731 -0.051468205 -0.081917085
0000a0 c9 41 aa bd 6d 70 63 3c 0d 73 03 3d c7 54 f0 3e
       -0.08313329 0.013881785 0.032092143 0.4693968
0000b0 ab 60 a0 bd a6 18 4c be cb 14 b0 bc 44 c2 c7 3e
       -0.07830938 -0.19931278 -0.02149429 0.390154
0000c0 99 22 fc 3d 9c 94 18 3f 25 38 a4 3d 4d 38 9e bd
       0.123112865 0.5960176 0.08018521 -0.07725582
0000d0 0a 14 12 be 66 13 20 be f4 3d 39 3e a9 06 b0 3c
       -0.14265457 -0.156324 0.1809004 0.02148755
0000e0 5f 6b 94 ba 60 09 11 3f b6 a0 4e bd 87 03 59 3e
       -0.0011323503 0.5665493 -0.050446235 0.21192752
0000f0 53 c1 9d 3e d2 2e bb bd 02 b9 21 bd 9c 7e 3d bd
       0.30811557 -0.0913979 -0.039483078 -0.046263322

fc4.weight f4 [4, 64]
000000 34 32 59 bd e6 ef fd 3e 7b b6 bd bd 24 84 a1 3e
       -0.053026393 0.4959709 -0.09263321 0.31546128
000010 f4 92 38 bd 0d 42 4a be de 06 e0 bd 39 15 4e 3e
       -0.04506202 -0.19751759 -0.1093881 0.20125283
000020 5f 41 55 3f ed 02 c4 3e 2f a0 c8 3b 13 08 13 3f
       0.83302873 0.38283482 0.006122611 0.57434195
000030 19 95 48 bd 71 54 26 bf ed f7 70 be e3 8d 16 3c
       -0.048970316 -0.649726 -0.23532076 0.009189102
000040 75 2e 8d be 6c 6a be bd 73 5d 82 3f 07 48 8d be
       -0.27574506 -0.09297642 1.0184768 -0.27594015
000050 ca 1e 0b 3f 9d ba 6f 3f 08 1a 83 be ee 74 b3 3f
       0.54343855 0.93644124 -0.25605798 1.4020059
000060 74 51 af 3c bb 48 55 be 10 a1 35 be 16 75 7f 3e
       0.021401145 -0.20828526 -0.17737222 0.24947008
000070 e5 1b 4b be d6 3a 9d be 21 53 a1 be 88 e4 03 be
       -0.1983486 -0.3070895 -0.31508735 -0.12880147
000080 99 42 94 bd b5 75 31 3d 43 ba 66 be c4 69 7c be
       -0.07239265 0.043325145 -0.2253199 -0.24649721
000090 46 12 01 be 76 d5 3c be c6 42 6d bd b9 10 4a 3d
       -0.12604627 -0.18440804 -0.05792501 0.049332354
0000a0 46 5d e9 bd 17 74 c5 bc a2 46 c0 3c b5 6d 60 3f
       -0.113947436 -0.024103208 0.02347118 0.876674
0000b0 45 7a b1 bd 67 48 1f be 4b 86 7a be a0 60 e3 3e
       -0.08665899 -0.15554963 -0.24465291 0.44409657
0000c0 f2 d9 a6 3b c1 62 94 3f 62 98 45 be 87 87 82 be
       0.005091899 1.1592637 -0.1929641 -0.25494024
0000d0 fc f5 a4 3c 4a 1b bb ba a6 d7 ab be 99 bb 59 be
       0.020136826 -0.00142751 -0.33562964 -0.21262969
0000e0 92 56 db bd b5 6f b1 3e a1 50 6d bd 05 5c b0 be
       -0.10709871 0.34655538 -0.05793822 -0.34445205
0000f0 b3 17 22 bf 37 23 45 be 39 0a 35 3d 80 73 19 be
       -0.6331741 -0.19251715 0.044199202 -0.14985466
000100 39 b3 3a be a8 f4 b4 3e fe 6a 32 be 58 67 35 3f
       -0.1823243 0.35342908 -0.17423627 0.70860815
000110 e3 cd 39 be 10 a6 9a bd 84 c0 4c 3d 79 87 50 3d
       -0.18144946 -0.07551205 0.049988285 0.050910447
000120 9c 0b 23 3f c0 3b 2f 3f 0b 65 ce be bb 1e d2 3e
       0.6368959 0.68450546 -0.40311465 0.4103907
000130 64 05 77 3d dc 79 ab be b3 72 9c be d1 ba b9 bc
       0.060307875 -0.3349141 -0.3055626 -0.022672089
000140 70 d3 81 be 51 72 b7 3d 5b d9 00 3f 71 52 02 be
       -0.25356627 0.08957351 0.5033166 -0.12726761
000150 74 92 85 be c9 61 9e 3f ee 8b 4b be 08 7e ca 3f
       -0.26088297 1.2373592 -0.19877598 1.5819712
000160 ae d3 b1 bc c0 04 32 be c8 9e 05 3d cf 1c f9 3e
       -0.021707382 -0.17384624 0.03262213 0.48654792
000170 e5 4a 8a be b6 d1 af 3e 5e b6 48 be 1d 5b bf be
       -0.27010265 0.34339684 -0.19600818 -0.373742
000180 4e 0c 41 be a5 3b a8 bd 0d 31 46 be 53 4c 66 3c
       -0.1885235 -0.08214501 -0.19354649 0.014056283
000190 ec 66 af bd 38 73 26 be 61 d6 a3 bd 68 ea b9 3c
       -0.08564553 -0.1625489 -0.07999874 0.022694781
0001a0 cf 50 98 bd 02 16 70 be 35 71 3d be 0c 1e 86 3f
       -0.07437288 -0.23445895 -0.18500216 1.047792
0001b0 33 fc 20 be 1c d6 34 be f4 b6 75 be 5d 80 92 3e
       -0.15721206 -0.17659801 -0.23995572 0.28613558
0001c0 3f 30 43 be 9d 6c a1 3f 8e 73 3a be 84 35 41 3b
       -0.19061373 1.2611271 -0.18208143 0.002948136
0001d0 fc cf 2e be 0c 76 c3 be 0b 7d 1a bf d4 72 18 be
       -0.17071527 -0.38176 -0.6034705 -0.14887553
0001e0 98 dd 19 be 1a 37 23 3f 66 da 81 3d c4 a4 ac be
       -0.15025938 0.63755953 0.06340484 -0.33719456
0001f0 08 c0 e7 be 25 77 70 be 48 a4 b3 3d 45 5f 09 be
       -0.45263696 -0.2348295 0.087715685 -0.13415249
000200 09 2e d8 be d5 54 70 3f f9 4c 49 bd a8 87 3a 3e
       -0.42222622 0.93879443 -0.049145672 0.18215811
000210 57 72 bd be 1b ec 81 be 19 2d c3 3c 3a 59 63 bd
       -0.37001297 -0.25375447 0.023825215 -0.055505015
000220 e2 b5 7e 3f 3a 87 1a 3f a2 a1 bd be 29 7a 1a 3f
       0.9949628 0.6036259 -0.3703738 0.6034265
000230 c4 55 7a be 94 ab 59 3e dc 0c a3 be 9e 32 0b 3d
       -0.2444678 0.21256858 -0.31845748 0.03398382
000240 72 17 15 bd 90 98 3c 3b 54 a5 46 3f f0 52 63 be
       -0.036399312 0.0028777458 0.7759602 -0.22199607
000250 27 f1 12 3f 7b a8 9e 3f c9 61 69 be e4 e2 9d 3f
       0.5739922 1.2395166 -0.22791208 1.2334867
000260 37 f6 ec bb 98 25 5e be 99 a7 8b 3e e1 1f a0 3d
       -0.0072314995 -0.21694028 0.27276304 0.078185804
000270 74 30 48 be e8 cb 0d be 0a 6c c1 be 70 08 15 be
       -0.19549733 -0.13847315 -0.3777774 -0.14554
000280 03 57 61 be 28 81 ad be 87 11 ac be 95 37 2e 3e
       -0.22005849 -0.338876 -0.33607122 0.1701339
000290 f0 48 af be 85 a1 08 be ae 3e c2 3d 33 74 bd bd
       -0.34235334 -0.13342865 0.094846115 -0.09250679
0002a0 5e 5d 6c bd 17 73 be be 2d 89 f3 be 46 ae 8e 3f
       -0.05770623 -0.37197182 -0.47565594 1.1146934
0002b0 e9 17 ad be e5 b6 e6 bd ea b7 0c 3d 7f a6 7f 3f
       -0.33807305 -0.11265353 0.03435508 0.9986343
0002c0 09 bd 6f be 3e 84 84 3f a1 b6 3b be 63 39 87 be
       -0.23411955 1.0352857 -0.18331386 -0.2641097
0002d0 00 05 8f be 5f 37 83 3d af 78 cf be a0 aa 75 be
       -0.27933502 0.064070456 -0.40521762 -0.2399087
0002e0 84 c0 57 be 82 3e 56 be 17 26 0a bd 87 05 80 be
       -0.21069533 -0.20922282 -0.03372773 -0.25004217
0002f0 50 7d 73 be 16 72 b9 be 44 cf 48 bd ba b0 bd be
       -0.23778272 -0.36219853 -0.04902579 -0.37048894
000300 98 21 48 bd 80 8e 87 3e 74 21 1f be da 98 b7 3d
       -0.048860162 0.26475906 -0.15540105 0.08964701
000310 1d 83 60 be 5b 59 58 be 72 70 24 3b 19 52 e3 3e
       -0.21925016 -0.21127836 0.0025091437 0.44398573
000320 8f 6c 64 3f 2f 88 19 3f 9f 89 ce bc f8 2c 46 3f
       0.8922815 0.59973425 -0.025212107 0.77412367
000330 92 da 0d 3e 8e 30 81 bd da 5d ab be 82 ee be bb
       0.13852909 -0.06308089 -0.3347004 -0.005826772
000340 e8 91 a0 3e c4 f9 50 3d f5 04 cd 3f 43 5d 9d be
       0.31361318 0.051019445 1.6017138 -0.30735216
000350 bf cc 66 3f 2f c4 3c 3f 2d 8c 91 be ab e2 95 3f
       0.9015617 0.7373685 -0.28427258 1.1709799
000360 c2 df bf bd 92 27 97 bd 47 91 45 3e ed cc 9d 3d
       -0.0936885 -0.07380594 0.192937 0.07705102
000370 4d e4 8f be eb f5 26 3e f4 7c 53 be a3 ab c3 bb
       -0.28103867 0.16304748 -0.20653135 -0.0059713884
000380 96 af 51 be 8c 3f 26 bc 2a 7b 89 be ec 9c 99 be
       -0.20477137 -0.010146987 -0.2685178 -0.30002534
000390 29 e6 96 be 2e e3 94 be e5 ef b1 bd 76 ca 3b 3d
       -0.29472473 -0.29079574 -0.086883344 0.04584738
0003a0 11 bf 7f bd 2e 64 2f bd 4d da 5f be f9 f6 90 3f
       -0.062438074 -0.04282015 -0.21860619 1.132537
0003b0 71 8e 51 bd 95 2b 6d bd 4d 5a de 3c 8c 73 a4 3e
       -0.051161233 -0.05790289 0.027142668 0.32119405
0003c0 5e 25 e8 3e 30 1e 78 3f 6e e5 a2 be 5d 69 0d be
       0.4534101 0.9692106 -0.31815666 -0.13809724
0003d0 79 73 f0 bd e9 26 c1 bc ed 33 2d bd 43 19 c4 be
       -0.11740775 -0.023578124 -0.04228585 -0.38300523
0003e0 08 b7 a1 be fd 92 07 3e 3a 71 fd bd 62 31 a1 bd
       -0.31584954 0.13239665 -0.12375112 -0.07870747
0003f0 a4 95 11 bf 0b db 96 be 36 75 fe bd 37 5b 08 be
       -0.5686896 -0.29463992 -0.124247 -0.13316046

fc4.bias f4 [4]
000000 ae 20 2b 3e 32 3f 7e 3d f4 77 77 3e 64 2b 4b be
       0.16711685 0.062071986 0.24166852 -0.19840771
