checkpoint2kEpisodes.pth (torch, 107996 bytes, 8 tensors)

fc1.weight f4 [128, 8]
00000000: 5883 a13f cc4f b7be ef5d 873e 3e71 d23d
00000010: 493e ecbe 6bd4 513e 315d 893e 2dd3 203d
00000020: 0784 a63f 8cff a0bd 41b0 443f d90a 5bbd
00000030: a48c 4a3e 702b db3d 9632 b23c e032 b8bd
00000040: 55f4 823f 9729 2cbf edce 2d3e b407 babd
00000050: e869 5b3e fe20 783d fcb5 0dbe 5e2e e13d
00000060: 8099 adbf bfb3 95be a72e f4be 2cd8 36bf
00000070: bc2f 523f 2376 683e 2f16 5a3e cdcb 6dbe
00000080: b35d 8f3e 4773 653b ca78 423f 84a4 7e3d
00000090: 9f98 f33e 02a8 6c3f ad90 5dbe be23 84be
000000a0: ce1b 89be 57ab 55bf 2a0c c93b 791d 6f3e
000000b0: 1e20 d43d faf6 e2be 1019 11be 68f0 093e
000000c0: ee7e 623f 5195 08bf 0db4 0dbf ba83 d8be
000000d0: d418 463c d7e2 043d f204 06be 21f0 8f3d
000000e0: 3949 fbbe bc67 c2be 8545 8c3b 84e8 3bbf
000000f0: 10c6 0f3f a328 503e 1d42 073d 64a5 8dbe
00000100: 8998 e2be 053b adbe 857c d43e 3629 4fbf
00000110: 1a6f 3dbe 4e92 19bf 5cca b33e 80f9 db3d
00000120: e911 0bbd 1f5c 4dbf cbb0 10bf f334 54bf
00000130: afce 5fbe ba57 c33c 25a0 2ebe c913 cd3e
00000140: 8687 aabf 6329 49be a19a 2cbf da9b cbbe
00000150: d5b6 383f fd1d b13d 68e2 d53a 1552 09be
00000160: 7563 c1bd 09ef a73e 75bc ad3d 8f86 aabd
00000170: 4383 30bf 5d59 8dbd ae7e 3bbe d3ff 60be
00000180: d84d 0d3f bb9f 24be 5264 88bd 08cd 8cbf
00000190: 2b20 a9be 01a6 5abe 7447 bf3c 9f1d 45be
000001a0: d117 fdbe 0ffc b73e 1745 28bf b22e c5be
000001b0: 60aa 53bf 1be3 19bf 59aa 233e dd4b ccbe
000001c0: 47e6 65be 23ba b3be 3868 2a3f a30c f5be
000001d0: 697d 3f3f 73d5 b8be 5f79 60bb de31 903e
000001e0: ca11 ce3e a62c b0be d3bf d1bd 6eae 773d
000001f0: 6b16 233f c540 a83e 0651 35be cb69 59bd
00000200: afe3 453f 4967 e1bf aa75 d83e 2af2 513f
00000210: 6451 9dbf cb3f 95be 3d45 963e 9941 ac3d
00000220: cba1 50bf 147f 01c0 f33b 9cbe 172e 93be
00000230: d78d 153f a08b 03be af8f d2bd 1d4e e0be
00000240: 33e1 a9be 171b 31bc aeec 32be 294e d93f
00000250: eb15 4d3f 9e97 dcbe 5c73 0d3e 371c 3a3e
00000260: 5867 2f3e 6cf4 8abf 9c03 7a39 c783 33bf
00000270: d9ec 2f3e caa9 a6bc 57f1 b53d 529b 0dbe
00000280: 552b 323f 2292 38be df83 9d3e c901 e33e
00000290: ad10 fb3e deff cd3e 248a f3be 096f bc3e
000002a0: 736c 94bf a80b c7bd ac58 083f 38e7 6bbe
000002b0: 2329 31bf dd79 45bd 6df8 73be 1260 aebe
000002c0: f752 4f3d e2d6 4b3d 676c 623f ae7f 9cbf
000002d0: da23 193e 9d0c 1bbd 0985 bd3d e252 663d
000002e0: b737 d8bc 3117 9e3e 6c54 bf3e 85ee 1ebd
000002f0: e248 c83d f7c0 21bf 24c2 45bf 4393 bb3e
00000300: 50e6 89bd 468a 41bc bed1 04bf f941 b53e
00000310: 40dc 283f cca7 66be 2677 eebe 6ef7 26be
00000320: 331b 513e c32a 81bc 1131 c33f aac7 543f
00000330: b1d7 c53d 43bc 2ebd abce 913d 413f c53d
00000340: e065 aa3d 2ec9 92be e7bf 833e e8fd 04be
00000350: 3c14 e2be b9b6 6ebe a562 07bf edc5 003f
00000360: 2161 8a3f 6510 37bf 137c 8f3e ea2f 8fbf
00000370: ec5c 05bf d090 31be 246e 51be 36b6 383e
00000380: 3bf9 b73e 1a15 cdbe 13d9 763e 9cae 98be
00000390: f3f1 e7be c675 63bf 44e0 54be 25e0 e73e
000003a0: eb07 0e3f d703 833e 2f3a 763e c697 913e
000003b0: a997 04bf ea5d 62bf efd2 b2be 94d0 aebe
000003c0: 63ee cfbd ea4f 2ebf 7552 fd3b 6733 eebe
000003d0: e60f 82be 6b60 0a3e ec30 cbbe 1b3a 93bd
000003e0: 76db a33d 1550 eb3e 8bfd 463d da91 48bf
000003f0: e583 8d3e bb99 e4bc db6a b5be c1f6 00bf
1.2618208 -0.35803068 0.26438853 0.102755055 -0.4614127 0.20491187 0.26828912 0.039263893
1.3009042 -0.07861242 0.7683144 -0.053477142 0.19780213 0.107016444 0.021752637 -0.08994079
1.0230814 -0.6725096 0.16973467 -0.090835005 0.21427119 0.06057834 -0.13838953 0.10995172
-1.356247 -0.29238698 -0.47691843 -0.714236 0.82104087 0.22701316 0.21297525 -0.23222275
0.28001174 0.0035011338 0.7596556 0.062168613 0.47577378 0.9244386 -0.2163722 -0.2580852
-0.26779026 -0.8346457 0.0061354833 0.23351087 0.10357688 -0.44329053 -0.14169717 0.13470614
0.8847493 -0.5335284 -0.5535286 -0.42288 0.01209088 0.032442894 -0.13087824 0.07028223
-0.49079302 -0.37969768 0.0042807483 -0.73401666 0.56161594 0.20328002 0.033022035 -0.27665246
-0.44257 -0.3383409 0.4150125 -0.8092226 -0.18499413 -0.5998887 0.35115325 0.10740948
-0.033952627 -0.8021869 -0.56519765 -0.82893294 -0.21856187 0.023845542 -0.17053278 0.40054157
-1.3322608 -0.19644694 -0.67423445 -0.39767343 0.7215398 0.08648298 0.0016318085 -0.13410218
-0.09442798 0.32799557 0.08483211 -0.08326446 -0.6895029 -0.0690181 -0.18310043 -0.21972589
0.55196905 -0.16076557 -0.066597596 -1.100007 -0.33032355 -0.21352388 0.023349501 -0.19249581
-0.49432233 0.35934493 -0.6573042 -0.38512188 -0.82681847 -0.6011216 0.15982951 -0.3990163
-0.22451125 -0.3510295 0.66565275 -0.47861204 0.74800736 -0.3610035 -0.003425203 0.28163046
0.40247947 -0.34409064 -0.10241666 0.060469083 0.6370608 0.32861915 -0.17706689 -0.053079408
0.7730054 -1.7609645 0.4227727 0.8201014 -1.2290463 -0.29150233 0.293497 0.08410949
-0.81496876 -2.0233812 -0.30514488 -0.287461 0.58419555 -0.12846231 -0.10281312 -0.43809596
-0.33179626 -0.010809681 -0.17473099 1.6976978 0.8011157 -0.43084425 0.13813537 0.18174826
0.17129266 -1.0855842 0.00023843203 -0.7012295 0.17180194 -0.020344634 0.088839225 -0.13828781
0.6959737 -0.18024495 0.30764672 0.443373 0.4903616 0.40234274 -0.4756633 0.36803463
-1.1595596 -0.0971902 0.532603 -0.23037422 -0.69203395 -0.04821192 -0.23825236 -0.3405767
0.05061623 0.049765475 0.8844666 -1.2226465 0.14955083 -0.037853826 0.0925389 0.056231387
-0.026393754 0.3087707 0.37369096 -0.03880169 0.09779526 -0.63185066 -0.7724936 0.3663579
-0.06733382 -0.011812752 -0.5188254 0.35401896 0.65961075 -0.22524947 -0.46575278 -0.16305324
0.20420532 -0.01576746 1.5249349 0.83117163 0.096602805 -0.04266001 0.07119497 0.09631205
0.08320212 -0.28669113 0.25732347 -0.12987483 -0.44156063 -0.2331189 -0.52884895 0.5030201
1.0810891 -0.7150939 0.2802435 -1.1186497 -0.5209491 -0.17340398 -0.20452172 0.18038258
0.35932335 -0.40055162 0.24106245 -0.29820716 -0.4530178 -0.88851583 -0.20788676 0.45288196
0.5548083 0.25588867 0.24045633 0.28436106 -0.51793915 -0.8842455 -0.34926555 -0.34143507
-0.101528905 -0.6809069 0.007730777 -0.46523592 -0.25402755 0.13513343 -0.39685762 -0.07188817
0.08000843 0.45959535 0.04858164 -0.7834755 0.2763969 -0.027905336 -0.35433087 -0.50376517

fc1.bias f4 [128]
00000000: 13c1 6f3d c21c 093e 7ce1 8c3b 7c87 d3bd
00000010: 6c6e bdbe 6b11 5abf a8a0 9f3e 9434 d0be
00000020: ab73 b4be 8803 05bf 5708 17bc 1f7e ca3e
00000030: 25bd 833e eb66 fbbe bb68 90bd d681 eabe
00000040: 3c47 cfbe 0ae7 0e3f 7377 783d 94aa 233f
00000050: 0d07 3bbf 2cf2 79bd f05f cabc 50b0 1d3d
00000060: edf8 a8be 8d0c ae3b 77d1 6a3e c611 c03d
00000070: a4a7 b1be fb7f a63d 635c b33e 3a1e c6bd
00000080: 17f4 053f 0bed f5be c553 9cbe 74a0 91be
00000090: de31 26bf 5325 933e d8d1 373f f3ea 7ebb
000000a0: deb7 8bbe 177a 333e 0ed5 f6be 9e3e ff3d
000000b0: a069 c13e 6a0e 063f 1a7f 663f 1a6e 98bd
000000c0: 2693 95be e4f7 3fbe 24f4 963d ca33 ed3d
000000d0: 8420 97be 3eb9 1fbf 2602 d9bd 5101 0abe
000000e0: 7f85 46bd 5ec8 1ebf bfcc d7be 901a 29bf
000000f0: 39c6 17be 54be 883e e22d 1b3e 043e a33e
00000100: 11b5 643e ab77 a6be 3d15 a43d 8416 6c3d
00000110: c65a 80be b5c0 34bd 9ab3 8d3e d9b4 9fbd
00000120: 381c 103c eeaa 313d b627 90be 3662 713e
00000130: acaf 23bf f8a5 2a3f abcc 463d 0161 c03e
00000140: 260e aabe 2a5a e73e 78de 1ebd 5632 81bd
00000150: b02c a1be c5b1 793e c7bc b43d 9d39 9f3e
00000160: 9dee b3be 1777 f63e 5917 993e 4e1f 81bc
00000170: 431a dabe bc42 b43e 3b7b f9bd 5165 f9bc
00000180: 655b a6be 61bc f2be f700 5bbd e4c5 d4be
00000190: 5a9a e73e 9e22 40be 9fad b23e 1c02 e13e
000001a0: fea1 ed3e f476 af3e ed29 0bbf e090 233f
000001b0: 1b08 10be 2eb5 02bf b37c 173f ec0d bbbe
000001c0: fdaa a7be 9e97 133f 3901 bfbb 6569 b2be
000001d0: 0b98 c8be 7e31 87be d1e5 7fbd 2500 f0be
000001e0: dd36 2abe 3a4b 7bbd fbcc cebb 4152 5abe
000001f0: 4326 873e c62b 023f 2539 cebe 428b 2f3f
0.05853374 0.13389876 0.004299341 -0.10328576 -0.36998308 -0.8518283 0.31177258 -0.40665114
-0.35244498 -0.51958513 -0.009218297 0.39549348 0.25730243 -0.49101958 -0.07051226 -0.45802182
-0.40484035 0.5582129 0.06066079 0.63932157 -0.73057634 -0.06102197 -0.02470395 0.038498223
-0.33002415 0.0053115548 0.22931467 0.0937839 -0.34698212 0.08129879 0.35031423 -0.09673734
0.52325577 -0.48032412 -0.3053266 -0.2844273 -0.6491984 0.28739414 0.7180457 -0.0038897365
-0.27288717 0.17527042 -0.48209423 0.12463115 0.37775898 0.52365744 0.9003769 -0.07442875
-0.29213828 -0.18746907 0.07370785 0.115821436 -0.29516995 -0.6239203 -0.10596113 -0.13477065
-0.048467156 -0.62024486 -0.42148396 -0.66056156 -0.1482171 0.2670771 0.15154222 0.31883252
0.22334696 -0.32513174 0.080118634 0.05763866 -0.25069255 -0.044129092 0.27676088 -0.07798166
0.00879579 0.043375902 -0.28155297 0.23572621 -0.6393993 0.666595 0.04853503 0.37574008
-0.3321392 0.45185977 -0.03878638 -0.06308429 -0.31479406 0.2438422 0.08825069 0.31098643
-0.35142985 0.48137733 0.29900625 -0.015761998 -0.4259816 0.35207164 -0.121817075 -0.03044382
-0.32491603 -0.47409347 -0.053467717 -0.4155723 0.45234948 -0.18763205 0.34898087 0.43946922
0.46412653 0.34270442 -0.5436085 0.63892937 -0.14065592 -0.5105771 0.5917465 -0.3653406
-0.3274764 0.57653224 -0.005829003 -0.34846035 -0.391785 -0.26404947 -0.06247503 -0.4687511
-0.16622491 -0.06135104 -0.0063110567 -0.2132044 0.2639638 0.5084804 -0.40277973 0.68571866

fc2.weight f4 [128, 128]
00000000: e980 e63c dda5 dcbd 64d2 26be 81d4 b53e
00000010: 67f0 843e ef63 58bf 0260 13be fdf9 a83e
00000020: bd43 683e f57c 40be 9421 d73e bae5 a5be
00000030: fe2e 04bf 731e 12be e01f 133e 3b7b e93e
00000040: a532 8fbd 8ff6 013f f33e 34bf 83f9 c03d
00000050: 0adf 2a3f ab2f a23f fb3c 64bf 907e 91be
00000060: f334 603d 2562 bebe 1a01 2abc 1750 91be
00000070: ce84 203d 83fd 09bf 55cb 683e 1050 70be
00000080: 2ec3 873e b6b4 9dbe 3070 6bbf ef9f 2abe
00000090: 35e3 b33d ae95 5c3e f895 cc3d 9c9c 8ebe
000000a0: 6286 48bf c77e 683d bfb5 33be 131d ae3d
000000b0: 5c6c fdbd f0f0 0f3e ed95 07be 34ab a9be
000000c0: 36d7 da3d 03d7 14bf b18b 0fbe eff8 853e
000000d0: 2f37 983e b3b4 55be 6899 583f 58ef 63be
000000e0: d2bf 6bbe 9281 dfbe 132b b23e 3275 6fbc
000000f0: a55a 95bd 0e3d c6be d843 8ebe 52d6 3e3d
00000100: 0561 0d3d 8111 483f 3b66 6abf af66 643e
00000110: 9792 3ebf d2f0 8cbc 046b 34be af6e fb3e
00000120: 4cd5 f1bd 95ad 08bd 2458 b83c 26f6 353c
00000130: 3135 dcbe 7f55 853e d53a 903e 719f ebbe
00000140: 6787 b93c 9ea2 9b3e 7d1b c2bf 078a 133e
00000150: 29cf 82bf c39b 8abe 727e 6a3e e049 0f3f
00000160: 59d0 bdbe c04c 333f 438a 17bd acc8 afbe
00000170: 4363 7f3f 4484 45be c7c8 8ebf 1e42 3bbe
00000180: 2e29 afbd 647a f73d 7815 12bd 17be bb3e
00000190: 4cc4 0ebe 9547 223f ce55 42be 615c 99bd
000001a0: 56b6 9dbe 16f6 13bc 6424 c73d a20c abbb
000001b0: 8e1f 703e 7fb1 513e f32c 27be 83b5 c13e
000001c0: caae 203f d9e5 89bb d11a 9abe d2b3 3f3f
000001d0: 4bd9 61be 6176 d5be 91a8 c3be 40c2 1ebe
000001e0: 3283 0fbe 2db4 fc3d 6060 4a3d a2fe 733f
000001f0: 3a16 74bf a8f6 0e3f 40c4 acbd e027 3cbd
00000200: bc27 7fbf 029f a0be 5b0b ecbe e896 1dbf
00000210: e6d8 c33d 92ba 8bbf a43c b2bd 74e3 86be
00000220: 19ac a23e 9f0d bbbc 70e5 00bf c340 913d
00000230: f193 023d 320d 0cbf 7893 123f 8bce 06be
00000240: 5705 17bf 6098 8b3e 1fc3 143f 722e e63e
00000250: 5c03 30bf dc08 153f 9a29 ed3d 88b4 8e3e
00000260: d346 76bd 1727 5e3e b9fe 6ebc c6f2 4bbe
00000270: 02b0 0b3f c227 0dbf d85d f23d 5cc9 133e
00000280: b1f7 1fbd ebff 3f3e e8cf 73be c7ac 153f
00000290: 76d6 b1bd 9737 eb3d 549d a3bd 3438 ac3a
000002a0: e0bb 9c3e e17c 723e a2b1 edbe d4f0 8a3e
000002b0: 5ce8 83be 75cf 24bd 4943 06be 0835 593e
000002c0: 251e 453e 2076 723d 0ce4 e5be 66b0 be3e
000002d0: dc15 153f e600 56bf d66a 833e efd7 22be
000002e0: 1b62 12bf d268 c4be 6bf1 d03d 8a97 3d3f
000002f0: 827c 0dbd 2c2a f7bc f56a 3abd ead6 34bc
00000300: 2667 bd3e 24e7 a33f 4c0e b3bf 5e26 7dbd
00000310: 1a02 53bc d742 d53e 8523 113d 74d6 31bd
00000320: 8b53 9a3e 6fbc bf3e f007 dbbd a7ea 773e
00000330: 06d3 5fbe d0cc 03bc 051f d6bd 4cb2 9dbd
00000340: a51d cebe 5172 ce3e 9197 9ebf b46c d53e
00000350: 4115 843e e07b 03bf 35f7 9bbf b3e0 103e
00000360: 3d5f 73bd bd33 813f 8350 c2be e0ef b3bf
00000370: a75c 373d 0b66 a8be 6758 9d3e 7614 24bf
00000380: afa4 66bf f5b3 ca3d b21e 713d 957a c83e
00000390: 8527 66be 7e5b 353e d058 72be bcfe 06be
000003a0: d72a 05be 4eef 893c c2c8 173e 3bbc ccbd
000003b0: 4dbe b03e 4b42 54be 16d6 85be c6b3 333e
000003c0: b55f 023f db73 a03b 228b 01bf f455 733f
000003d0: acff 073e 4845 b5bb c039 b9be 006b 43bf
000003e0: 351b d23d e67f a2bd 0a2b 153d 41c6 713e
000003f0: 6e7a 343e f4b7 343e 1587 313e 3fa0 31be
0.028137641 -0.107738234 -0.16291195 0.3551369 0.25964662 -0.84527487 -0.14392093 0.33003226
0.2268209 -0.18797667 0.42017806 -0.3240183 -0.51634204 -0.14269428 0.14367628 0.4560183
-0.069920816 0.50766844 -0.7040855 0.094225906 0.6674658 1.2670797 -0.8915555 -0.28416872
0.054737996 -0.37184253 -0.010376239 -0.28381416 0.039189152 -0.53902453 0.22733815 -0.23468041
0.26516098 -0.30801934 -0.9196806 -0.16662572 0.08783571 0.21541473 0.09989542 -0.27853858
-0.7833005 0.05676153 -0.175498 0.08501639 -0.123741835 0.14056754 -0.13240786 -0.3313843
0.106855795 -0.5814058 -0.14018132 0.26166484 0.29729602 -0.20869713 0.8460908 -0.22259271
-0.23022392 -0.43653542 0.34798488 -0.014615344 -0.0729268 -0.38718456 -0.27786136 0.04659111
0.034516353 0.7815171 -0.9156224 0.22304796 -0.7444243 -0.017204676 -0.17618948 0.49107882
-0.11808261 -0.033368666 0.022502966 0.01110605 -0.43009332 0.2604179 0.28169885 -0.46020082
0.022647573 0.30397505 -1.5164639 0.14408122 -1.021947 -0.27071962 0.22899798 0.559721
-0.3707302 0.70038986 -0.03699709 -0.34332788 0.99760836 -0.19288737 -1.1155022 -0.1828694
-0.08552776 0.12083891 -0.035665005 0.36668465 -0.13942069 0.63390476 -0.18978044 -0.07488323
-0.30803174 -0.009030839 0.09723738 -0.005220012 0.23449537 0.20477866 -0.1632574 0.37833795
0.62766707 -0.004208308 -0.30098584 0.7488376 -0.22055547 -0.41691878 -0.38214543 -0.15503788
-0.14014891 0.12339053 0.049408317 0.95310414 -0.95346415 0.5584512 -0.08435869 -0.045936465
-0.99670005 -0.31371313 -0.46102414 -0.6155839 0.095628545 -1.0916312 -0.087029725 -0.26345408
0.31771925 -0.022833643 -0.50350094 0.070924304 0.03187937 -0.54707634 0.5725627 -0.13164727
-0.5899252 0.2726469 0.5811023 0.4495731 -0.68755126 0.58216643 0.115802005 0.2787211
-0.060126137 0.21694599 -0.014587098 -0.1991683 0.5456544 -0.5513879 0.118343055 0.14432281
-0.039054576 0.18749969 -0.23809779 0.5846676 -0.08683483 0.11485212 -0.07988992 0.0013139308
0.30612087 0.2368045 -0.46424586 0.27136862 -0.25763214 -0.04023691 -0.13111605 0.21211636
0.1924978 0.059194684 -0.44900548 0.37243956 0.5823648 -0.8359512 0.25667447 -0.15902685
-0.5718095 -0.38361222 0.10202297 0.74059355 -0.034542568 -0.030171476 -0.04551216 -0.011037568
0.3699276 1.2804914 -1.3988738 -0.061804168 -0.012878919 0.41652557 0.035434265 -0.04341741
0.30141863 0.3744845 -0.10694873 0.24210607 -0.21857843 -0.008044437 -0.10455135 -0.07700023
-0.40256992 0.40321591 -1.2390004 0.41684496 0.25797465 -0.51360893 -1.2184817 0.14148216
-0.059417 1.0093914 -0.3795205 -1.4057579 0.044766095 -0.32890353 0.30731508 -0.6409372
-0.9009504 0.09897605 0.058867164 0.39156023 -0.22476013 0.17710683 -0.23666692 -0.13183111
-0.13004623 0.016837742 0.14822677 -0.099968396 0.34520188 -0.20728414 -0.26139897 0.17549047
0.5092729 0.0048966235 -0.50602925 0.9505303 0.13281125 -0.0055319406 -0.36176872 -0.76335144
0.102590956 -0.07934551 0.036418 0.23610784 0.17624828 0.17648298 0.17336686 -0.17346285

fc2.bias f4 [128]
00000000: dab8 5ebe afd2 ae3d 141e 26be 4bbc a9bd
00000010: 5807 b2bd 5015 b9bc a21b 37bd 55eb c8bd
00000020: b301 203f 64c4 58bc e87e 3a3d 7212 cfbd
00000030: 1ef3 6e3e 9a8c 853e f63b a53d 7fc9 57be
00000040: 2e7c b8bd 4231 aa3c c813 57be d190 1b3f
00000050: e5ef c63e bcc5 94bd 1b13 a33e ef5e 363f
00000060: b79f 663e 3a81 4a3d b752 6f3e d585 8f3e
00000070: d979 e1bd bf5a e03e 2441 473c f43e 0c3d
00000080: 7ed7 43be c944 c93e 7f43 333e e098 85bc
00000090: ed8a f83e 998b 5b3e 77d4 663e a0d2 933c
000000a0: 91fc 42bd 4fad 473d 88b5 523b d49a 2bbe
000000b0: 6395 20bd f81a f7bc 0eb5 5abb baf3 81bd
000000c0: 75f8 39be 3da6 583e 4875 b7bd 813e 5fbd
000000d0: d224 bc3d b819 313f bcf6 143e d4a4 733e
000000e0: 1661 6ebe fa77 d2bd 14b9 933c 34d7 ea3d
000000f0: ccce 3c3f 22b8 1d3e be19 d03e 3498 043f
00000100: eae0 a6bd 6476 ddbd 153d 03be 2bc7 1fbd
00000110: 6c0a b1bd 9817 3f3d 380f 8dbe 7fae bc3e
00000120: 6d45 913e 99b6 2b3e 87bd 223f 7001 323e
00000130: 0a22 fa3d cb10 1d3e 62b7 d03e 9a52 9bbc
00000140: 26f9 d6bd a312 cf3d 3cf2 64be e997 963e
00000150: 34cc b83e 6b9e 42be a08c 20be e3ca f2bd
00000160: 24a2 cbbc 64a7 da3d 4efd 503d 3001 633c
00000170: db74 d03e 0490 423e 4020 b0bc 4d35 0dbe
00000180: e39b cebd 8efe 33bd d086 103e 332b 9b3d
00000190: f816 483e fa2f dbbc a8ba a3bd 8471 973d
000001a0: f495 16bd 3ac4 f23d 4078 8c3d 8b85 40be
000001b0: 7f3e f9bb d6f0 413c 0998 543e e707 f53c
000001c0: 9ab4 e43e 9fc3 b13e ed0d fc3c e110 29be
000001d0: 5751 fe3e eded 05bd 6498 1a3f b235 f23e
000001e0: 4edd 72bd 925c 1d3f 6d0d c1bd 3383 a93e
000001f0: 2796 853d 35f0 9dbd 8784 c3bd c1c0 1f3d
-0.21750203 0.085362785 -0.16222411 -0.08287867 -0.08692807 -0.02259317 -0.044704087 -0.09810511
0.6250259 -0.013230417 0.045531183 -0.1011094 0.2333493 0.26083833 0.08068077 -0.21072958
-0.090080604 0.020775441 -0.2100364 0.6076785 0.388549 -0.07264277 0.31850514 0.7123861
0.22521864 0.049439646 0.23371397 0.28031793 -0.11009569 0.43819234 0.012161527 0.034239724
-0.19125172 0.3931029 0.17506216 -0.016308248 0.48543492 0.21439971 0.22541986 0.01804477
-0.047604147 0.048749264 0.0032151658 -0.16758281 -0.039204966 -0.030164227 -0.0033372077 -0.06345315
-0.18161185 0.21157165 -0.089579165 -0.054502968 0.091867104 0.6917987 0.14547247 0.23793346
-0.23279223 -0.1027679 0.018032588 0.11466828 0.73753047 0.15402272 0.4064464 0.51794744
-0.08148368 -0.10813597 -0.1281627 -0.0390083 -0.08644566 0.04665336 -0.27550673 0.3685188
0.2837328 0.16768874 0.63570446 0.17383361 0.12213524 0.15338437 0.4076491 -0.018960286
-0.1049674 0.101109765 -0.2235803 0.29412773 0.36093295 -0.19005744 -0.15678644 -0.11855104
-0.024857588 0.106764585 0.05102282 0.013855264 0.40714154 0.1900025 -0.021499753 -0.13789864
-0.10088327 -0.043943934 0.14113927 0.07576599 0.19540012 -0.026756275 -0.07994586 0.07394698
-0.0367641 0.118538335 0.06858873 -0.18800943 -0.007606327 0.011837205 0.20761122 0.029910995
0.44669038 0.3471956 0.03076836 -0.16510345 0.49671432 -0.032697607 0.6038878 0.4730659
-0.059293084 0.61469376 -0.09426389 0.3310791 0.0652278 -0.077118315 -0.09546762 0.039002184

fc3.weight f4 [64, 128]
00000000: 3796 8cbe 4082 2abe ffb8 11bd a0d0 a93c
00000010: cdea 993e 933a 273e 77b7 513c 7c28 873d
00000020: 420f a8be 555e 683d cfb8 ddbe 0fd8 a0bc
00000030: e186 3a3d dc29 fb3e 9c64 883d bc70 713e
00000040: 10af 7f3d 5998 d23e f52f bfbe d9e3 1cbc
00000050: b785 f6bd 1045 ecbd 7026 9d3e 0cf1 e4bd
00000060: a20f ca3d ec3c 21bd d395 60be aab9 3dbe
00000070: 6720 cf3d 434f 47be 5990 0cbd fa4a 87bd
00000080: 16d9 9bbe bfde b3be b733 7ebe bd32 a6bf
00000090: 0a27 df3d 7e23 85be e1b7 52be 5c53 ef3e
000000a0: a681 36be 249b 793e f03c ce3e 86e7 113e
000000b0: a9aa c8bd b8d0 703d 6cfb 9b3d efab 6fba
000000c0: d259 17be f935 cb3c 3fa6 c53b a8a5 c63c
000000d0: 4532 873d 24ca fc3e c351 84bd b0e9 33bf
000000e0: 2503 993d e53a 52bd 0ee6 a53c 4d41 f4bd
000000f0: e4dd 283e be6a a13e b4fa d2be a651 fabd
00000100: aa91 15be cbf6 31bc 2c54 89bc 70ee 1dbd
00000110: 909e cbbd ceec 83bd 7a39 a2be 0d11 673e
00000120: 0d73 ca3e 1178 68bd 0536 90bf cb6f 17bf
00000130: ac8a 94bd 1463 8e3e c6d8 fd3d 1af0 5b3e
00000140: 6cc7 91bd 0b4e 9fbe 41d4 b6bd bb4a 513d
00000150: f1dc 8cbe afa0 f7bd 3db0 643e e261 2a3b
00000160: 24e8 1b3f 8c9b 01be c1a5 38be ea37 4cbe
00000170: f70f d23e 3187 a3be e16d e43c 1c06 403d
00000180: cd8c b6be 5e5f c13c 0466 67be 187d c73e
00000190: 06df a8be 03ce b6bd ef4d 88be 2f54 32bf
000001a0: 039a d93c a1b7 f03c 0251 c63d ce0e e63d
000001b0: ed2b 1d3c f646 0b3d 1421 813e 8010 833d
000001c0: d445 803e 8bd4 25be e3fb e23d 52bc 8bbe
000001d0: a753 eb3d e662 61be b921 68bf 99fd 7b3e
000001e0: 1df1 99be 569a 6dbe 30ba 44bb c0ad 8b3c
000001f0: 6ed8 08be 26a4 77be 6721 ee3c 4a64 ec3c
00000200: eadc 79bc d960 37bd 8128 39bd e8a7 50bd
00000210: ee8a 08be f2ff 973d 00cc c4b8 7247 70bd
00000220: 2441 01be a011 63bb 5f9e 4b3c 64c9 eb3c
00000230: 5849 403d 1422 cdbd acaa e9bc 194a 0ebe
00000240: 192e 02bd 2184 f2bd d248 90bc 461f 36be
00000250: f707 17bd 1b16 993d 7d9e 933d 0b4d b0bd
00000260: 27cb 753b 2aeb 693d d10a 73bd 9f4a 3d3c
00000270: 20b8 c2bb 8122 acbd 9c89 7b3d 5a6c 97bd
00000280: 90dd 0dbd 672b a3bd 35f8 7cbd dd3f 403d
00000290: 4b9a a3bc a407 eebc 1d22 76bd e56a 8d3d
000002a0: 4c3b 2b3c 8ccf bfbb 8da0 45bd 7b85 443d
000002b0: 5249 afbc 5601 91bd 6779 98bd 8011 37bd
000002c0: f5e0 823d 97f4 db3c b6ad 4a3d aa4a 713d
000002d0: 0020 67ba 930a fabd 107c ab3d f531 eb3b
000002e0: 7df4 8fbd 58b4 113d 0c6a 8dbd cfc5 62bb
000002f0: ee6e 52bc 094b 9f3c a3f0 2ebe 7a59 a23d
00000300: d72f 043c c653 8ebc 3496 733d f25b 7a3c
00000310: 1e82 533d 9e72 a43c 9008 6ebd 70d8 c3bd
00000320: 79e1 0f3d d4b7 64bc df77 33bd 05d0 0e3c
00000330: e480 aebd 7fef 2a3d 9d3e 48bd d47f ffbd
00000340: d78d bab9 efc6 e5bd 6bb5 1939 e040 203d
00000350: 801f 48bc 409a 3f3d 19e2 48bd 0012 4abb
00000360: a82e c4bc 81ea 44bc ac1c 5c3d a480 e7bc
00000370: 34a1 abbd 7026 9cbd f57c 8d3d b83d 9cbc
00000380: 7290 f4bc 9e95 83bd 367d 03be e625 b0bd
00000390: 9189 dbbd 8662 2abd cd6e 34bd 41af 673d
000003a0: 6730 953d dc52 123b 1267 5abd 519b f2bd
000003b0: 3cd3 1cbd 8987 b1bd 2c13 9e3d 2e55 0a3c
000003c0: e64e 01bd 7d66 bdbd d4fa 113c 2250 fdbd
000003d0: 6b0f 39bc c2b8 bbbd 292a 58bb 78ba 9dba
000003e0: 3293 8ebd c66e 59bd 0fc9 ad3d 781c 993c
000003f0: cda5 923d d1a5 4fbd b80e 7ebc a56c a23d
-0.27458355 -0.16651249 -0.035576817 0.020729363 0.3006195 0.16330938 0.012800089 0.06599519
-0.3282414 0.056730587 -0.4330506 -0.019634275 0.045538787 0.49055374 0.06659815 0.23578161
0.062422812 0.41131857 -0.37341276 -0.0095758075 -0.12037223 -0.1153661 0.30693388 -0.111787885
0.09866263 -0.03936474 -0.21932153 -0.18527856 0.10113602 -0.1946383 -0.03431735 -0.066060975
-0.3043906 -0.3513088 -0.24824415 -1.2984234 0.10896118 -0.2600364 -0.20577957 0.46743286
-0.17822894 0.24375588 0.40280867 0.14248475 -0.09798176 0.0587928 0.07616314 -0.00091427466
-0.14780357 0.02480601 0.006031781 0.024248913 0.06601385 0.4937297 -0.06460907 -0.70278454
0.07471303 -0.051325697 0.0202513 -0.11926518 0.16490895 0.3152675 -0.41206896 -0.122226045
-0.14606348 -0.010862063 -0.01676377 -0.03855747 -0.09942353 -0.06441651 -0.31684476 0.22565098
0.39540902 -0.05675513 -1.1266485 -0.5915496 -0.07253012 0.27809966 0.12394862 0.2147831
-0.07118115 -0.3111423 -0.08927203 0.05109666 -0.27512315 -0.12091195 0.22332855 0.0025998284
0.60901093 -0.12656993 -0.1803198 -0.19943205 0.41027805 -0.3193908 0.027884426 0.046880826
-0.35654297 0.023605045 -0.2259751 0.38962626 -0.32982653 -0.08926012 -0.2662196 -0.69659704
0.026562696 0.029384436 0.0968342 0.112332925 0.009592992 0.03400322 0.2522055 0.063996315
0.25053275 -0.1619436 0.110832 -0.27292114 0.11490565 -0.22010383 -0.90676457 0.24608459
-0.30066767 -0.23203406 -0.0030018203 0.017050624 -0.13363811 -0.24183711 0.029068662 0.028856415
-0.015250424 -0.044770095 -0.045204643 -0.050941378 -0.13334247 0.074218646 -9.384006e-05 -0.058661886
-0.12622505 -0.0034647956 0.012427895 0.028782554 0.046944946 -0.100162655 -0.028523766 -0.13895454
-0.031782243 -0.11841608 -0.017612848 -0.17785367 -0.03687283 0.074749194 0.072079636 -0.08608445
0.0037505121 0.057109036 -0.059336487 0.011553436 -0.0059423596 -0.084050186 0.06141053 -0.07393713
-0.034635127 -0.07967263 -0.061760146 0.046935905 -0.019971034 -0.029056378 -0.060091127 0.06905154
0.010451149 -0.005853599 -0.048248816 0.04797886 -0.021397267 -0.07080333 -0.07445031 -0.044694424
0.063905634 0.026850028 0.04948207 0.058909096 -0.0008816719 -0.12209048 0.083732724 0.007177586
-0.07029054 0.03557238 -0.069049925 -0.0034602766 -0.0128438305 0.01944496 -0.17083983 0.079272225
0.0080680465 -0.01737393 0.059469417 0.0152807105 0.05163776 0.020074185 -0.058113635 -0.095627666
0.035127137 -0.013959844 -0.04381549 0.008716588 -0.08520678 0.041732308 -0.048887838 -0.12475553
-0.00035582363 -0.11219584 0.000146588 0.03912437 -0.012214541 0.046777964 -0.04904375 -0.0030833483
-0.023948029 -0.012018801 0.05373828 -0.028259583 -0.083803564 -0.07624519 0.06908599 -0.019072399
-0.029854033 -0.064250216 -0.12840733 -0.086009786 -0.10719598 -0.041597866 -0.04405098 0.05656362
0.07284623 0.002232722 -0.05332095 -0.118460305 -0.038287386 -0.086684294 0.077185005 0.00844316
-0.031569384 -0.09248064 0.0089099 -0.123688 -0.01129518 -0.09166099 -0.0032984114 -0.0012033721
-0.06961669 -0.053084157 0.084856145 0.018690333 0.0716053 -0.050695244 -0.015506439 0.079308785

fc3.bias f4 [64]
00000000: e4da 873e d0d1 fbbd 17fc 093f 740b 303e
00000010: da37 7c3c 8848 8c3e c001 333e d0e7 09bd
00000020: eba3 16bd a16e 2ebc 1d72 303e 84bc 2d3c
00000030: 6c41 24be 55e1 cdbd b320 bd3e e1e3 39bc
00000040: 7c77 b83e 9d8e 7d3d ad76 86be a3c9 b73e
00000050: 0ddc 4cbd e1f9 1a3f 904a 763e 01fc 633d
00000060: 438f 6f3f ddb9 92bd 10da 8bbd 68e7 13be
00000070: 8357 a03e 38b4 25bd 63ba 3b3e bb29 c6bd
00000080: 681a 12be 6f3e 9abd 72a3 debd 12d1 813e
00000090: 171a f73d 0c4b e53e 7a99 133f b9d5 8ebe
000000a0: f5fd 8a3e cbb7 9f3e b7fd 1ebe daf2 91bd
000000b0: 3041 2e3e a6bf d13e 4fc6 cabd 5cea 9dbd
000000c0: dff8 c7bd 1dcf 783f 7ecb 8e3e 906c f23e
000000d0: 0988 1bbd 3d07 5c3e b969 293e dcb0 f33e
000000e0: bb9b bc3e 17b4 c33c 86f7 68bc d76d 503f
000000f0: e504 1e3f d28e 943e b6fb 15bd 61ca b93d
0.26534188 -0.12295878 0.53900284 0.17191869 0.015394175 0.27399087 0.17481136 -0.03366834
-0.036777418 -0.010646493 0.17231031 0.010604028 -0.16040581 -0.10052744 0.3693901 -0.0113458345
0.3602866 0.061903585 -0.26262417 0.35896024 -0.050014544 0.60537535 0.24051881 0.05566025
0.93577975 -0.07164357 -0.068287015 -0.14443743 0.31316766 -0.040455073 0.1833282 -0.09675928
-0.14267886 -0.075314395 -0.108710185 0.2535482 0.12065523 0.4478382 0.5765606 -0.27897432
0.2714688 0.3119491 -0.15526472 -0.071263984 0.17017055 0.4096653 -0.099011056 -0.07710716
-0.09764265 0.9719103 0.27889627 0.47348452 -0.03797153 0.21487136 0.16544236 0.4759587
0.36837563 0.023889584 -0.01421917 0.814176 0.6172622 0.29015213 -0.036617003 0.09071804

fc4.weight f4 [4, 64]
00000000: a969 663e be9a a53d 2454 2fbe f4b4 7dbe
00000010: 727f 8c3e c2f3 e0be 1ed7 723f 0ad2 5b3d
00000020: 6736 f03b 726b c53d 1f13 c1be 31a1 923d
00000030: 18e4 43bb 0056 50bd 0e1a c3be 3df6 853c
00000040: ef60 1d3f b156 1c3f 268f a43d 2cef 1b3f
00000050: 8c56 953d a217 433f 26c7 12bf c1df 223f
00000060: b749 843f db9d 95bd 6a2a 083d 728f fbbd
00000070: bcde 83be cee8 48bd 8710 d53e ec10 bbbd
00000080: 356f 89bd 748f a7be 44af 89be eb90 44be
00000090: 91d9 94be 0afe 24be 0c0b 593f 9054 163e
000000a0: a929 14bf 23df 453e 7a82 7e3e f798 213d
000000b0: a528 9cbe 6cdc 813f 478b ddbb 16d8 993b
000000c0: 5adc c5be 4743 7e3f 2fc1 49be 0f0b 6ebe
000000d0: 6e36 663d c952 b8be 90af e0bd 8567 1ebf
000000e0: bb7d d5be 8242 c4bc 88c1 90bd 7fed c4be
000000f0: 9cbf f9bc 3468 e8be 26c3 633c 3d8f 8fbe
00000100: ce6d 5bbe 0b1b 683d b61f 92bd 9f69 c2bb
00000110: bf9a 14be a8f1 b6be c2bf 923f 9378 e93d
00000120: 2b74 8fbb 77a6 173d e96d e8bd b984 2fbd
00000130: e741 773e 7a7b c0bc 0bdd 0cbf 0133 4fbd
00000140: ab9f f53e 83c7 003f 0234 d5be 000e 093f
00000150: a44a 633c 9785 3f3f e2db a3bd 6d0f a2be
00000160: 4607 903f 69d4 76bd 58ca 93bc 48a4 f83c
00000170: 9aa3 9dbe 5b54 853d 547c 2b3f 9cd8 3abe
00000180: 3abc 9bbd 682d a3be 8199 1dbe 89aa 7cbe
00000190: 0f2e 13be 9d2d 21bf d3df 433f 921a f13d
000001a0: 1e36 a2bd e5f6 b3be f047 b93e 9a40 84bd
000001b0: 1db3 883e 6e54 863f f0b9 a3bc ea19 fabc
000001c0: 6a81 53bd bf95 693f fa03 dcbe 1e16 55be
000001d0: 216a acbd 7ab5 a6be e6d9 84be 1fcf 21bf
000001e0: 04e7 cfbe fa54 8a3d 1f1f a83d be57 e7be
000001f0: e894 2ebd 0e08 9cbe 4680 b43d cf70 8c3d
00000200: a219 85be 3525 4b3d dfff 70be 03ac c2be
00000210: 4b1a 7dbe 781b ffbe 94e5 ae3f 3aed 62bc
00000220: 6bc8 c03c 93fe 573d 854f e0be c10b 81bd
00000230: b99b 90be 5feb 873c bd36 c0be 7a30 303d
00000240: e864 463f cc59 1f3f 763c c6be 8165 ac3e
00000250: 3e0a 963d 9a21 473f 5cfd 08bf b75d ca3e
00000260: 0d53 853f 21b9 a13d 1cc1 8c3c 2739 d23d
00000270: cdb9 e4be 5279 623d ce7b 213f 7cd5 16be
00000280: 7648 8abe 731b 84bd 16d1 1bbe ddf5 54be
00000290: 8419 91be 88f6 c9bd 5b56 6a3f 8a98 acbe
000002a0: 31c2 adbe 8454 a3be c31a 15bd 141a fa3c
000002b0: 44fa b1be 85b5 703f a51e 193d 912e 5aba
000002c0: ede6 8cbe a586 703f 52d7 36be e361 d8be
000002d0: 2bba d3bc c831 b4be 7278 86be a187 ccbe
000002e0: f03a abbe f8d6 52bd 7a41 94bc 3529 74be
000002f0: 750e b13e 6240 3abd c99d a6bd cd61 9cbe
00000300: f5ac 18bd 971e 5dbb 55f9 cfbe 7713 d6bd
00000310: e9b7 91be a5b0 35be 0ff9 633f b024 c13d
00000320: f672 c33d 4ff6 9ebc 6f37 403e 5d82 62bb
00000330: 4476 96be a37c 86bd c806 b8be 8aa6 23bc
00000340: 7f4e 353f 16cb 143f 29a8 053f 2fa7 f33e
00000350: df74 93bd 7ac0 3f3f e333 5fbe 8d39 07be
00000360: 569e 523f b904 21bd 7c11 d83c 38ca 853d
00000370: 0851 1ebf 7b08 b7bc df78 a03e 735c 093c
00000380: 7ab4 0dbe e028 87be ff96 e8bd 84df b5bd
00000390: a8a2 d6be 5c69 d6be 938d 663f 8f27 86be
000003a0: d456 f6be d424 e6be 6fb8 0fbf 0862 91bd
000003b0: 6bd8 dabe 6d32 853f 7e57 55bc e32a 823a
000003c0: a09a 27be 111f 973f ae24 a2be a6ce 09bf
000003d0: f4d4 823d 95a9 a73e af0e bfbd 8fe2 31bf
000003e0: e866 d8be ccdd a23d 3603 c4bd 1181 55be
000003f0: 97bc d6bd cd3d 84be 019a 01be b3b3 96be
0.22501244 0.08086155 -0.17121941 -0.2477606 0.27440983 -0.43935972 0.9485949 0.053667106
0.007330704 0.09639634 -0.377099 0.07159651 -0.0029890593 -0.050863266 -0.38105816 0.016352767
0.61476034 0.6106978 0.08035116 0.6091182 0.07291898 0.76207936 -0.57335126 0.6362267
1.0334996 -0.07305499 0.033243574 -0.122832194 -0.2575587 -0.049050145 0.41614172 -0.09134087
-0.06710664 -0.32726634 -0.2689153 -0.19195907 -0.2907224 -0.16112533 0.8478248 0.14680696
-0.5787607 0.19323401 0.2485446 0.03945252 -0.3049976 1.0145392 -0.006760988 0.004694949
-0.38644677 0.9932141 -0.197026 -0.23246406 0.056204252 -0.3600066 -0.10970986 -0.6187671
-0.41697487 -0.023957495 -0.07068163 -0.38462445 -0.030486874 -0.45392 0.0139015075 -0.2803897
-0.21428606 0.056666415 -0.07134955 -0.005933001 -0.14512156 -0.35731244 1.146477 0.11399951
-0.004377862 0.037023988 -0.11349089 -0.042851184 0.24146233 -0.023496378 -0.55024785 -0.05058575
0.4797338 0.5030443 -0.4164124 0.5353699 0.013872776 0.74813217 -0.08000924 -0.31652394
1.125222 -0.060261164 -0.018040821 0.030351773 -0.3078888 0.0651023 0.66986585 -0.18246692
-0.07604261 -0.3187058 -0.15390588 -0.24674429 -0.14373039 -0.62960225 0.76513404 0.11772646
-0.07920478 -0.35149303 0.36187696 -0.06457634 0.26699153 1.0494516 -0.019986123 -0.030529935
-0.05163709 0.9124412 -0.42971784 -0.20809218 -0.0841868 -0.3256033 -0.25947493 -0.63206667
-0.40605938 0.06754489 0.08209061 -0.4518413 -0.042622477 -0.30474895 0.08813529 0.06857454
-0.2599612 0.04959603 -0.23535107 -0.3802186 -0.24717061 -0.49825644 1.3663812 -0.0138505045
0.023533067 0.052733015 -0.4381067 -0.0630107 -0.28243807 0.016591726 -0.37541762 0.04301498
0.7749772 0.62246394 -0.38718003 0.3367119 0.07326172 0.77785647 -0.53511596 0.39524624
1.041597 0.07896639 0.017181925 0.10264807 -0.44673005 0.05529148 0.63079536 -0.14729875
-0.27008408 -0.06450548 -0.15216479 -0.20796914 -0.2833978 -0.09861475 0.9153802 -0.33710128
-0.3393722 -0.31900418 -0.036402475 0.030530013 -0.3476125 0.94026977 0.03738274 -0.0008322979
-0.27519932 0.9395545 -0.17855576 -0.42262182 -0.025845608 -0.3519423 -0.26263767 -0.39947227
-0.33443403 -0.05147454 -0.018097628 -0.23843844 0.34581342 -0.045471556 -0.08135564 -0.30543366
-0.03727432 -0.0033740157 -0.40619913 -0.104529314 -0.28460625 -0.17743166 0.8905191 0.09430826
0.095434114 -0.019404558 0.18771146 -0.0034562566 -0.29387105 -0.06566741 -0.35942674 -0.0099884365
0.708229 0.58122385 0.5220972 0.47588488 -0.07200026 0.7490307 -0.21797137 -0.13205548
0.8227285 -0.039311145 0.026375525 0.06532711 -0.61842394 -0.022342911 0.31342217 0.008383858
-0.13838378 -0.26398373 -0.11356925 -0.08880523 -0.41920972 -0.41877258 0.90059775 -0.26202056
-0.4811312 -0.44949973 -0.561408 -0.07098776 -0.4274324 1.0406014 -0.013021348 0.0009930994
-0.16367579 1.1806356 -0.3166861 -0.53830945 0.06388274 0.32746568 -0.093289725 -0.69486326
-0.4226601 0.07952461 -0.09570925 -0.20850016 -0.104851894 -0.258284 -0.12656404 -0.29433975

fc4.bias f4 [4]
00000000: 4fa6 c43d 6a59 2abe 10da 5b3f 8167 0b3e
0.09602033 -0.16635671 0.8587961 0.13613702
