checkpoint.pth (torch, 107876 bytes, 8 tensors)

fc1.weight f4 [128, 8]
0	0x3defff66	0.11718635
1	0xbf3f3cf8	-0.74702406
2	0xbeb4e1a1	-0.3532839
3	0x3f2993c1	0.6624108
4	0xbd46c382	-0.048526295
5	0x3f287d0d	0.6581581
6	0xbe1bd8ff	-0.15219496
7	0x3ded1646	0.11576514
8	0x3e8a6a85	0.27034393
9	0xbec42a83	-0.38313684
10	0x3f816148	1.0107813
11	0xbf828051	-1.0195409
12	0xbd89e27c	-0.067326516
13	0x3de74e41	0.112942226
14	0xbd3514e6	-0.044209383
15	0xbea3d0ae	-0.31995147
16	0x3ff6d655	1.9284159
17	0xbd1bec96	-0.038067423
18	0x3efccd50	0.4937539
19	0x3dc68f82	0.09695341
20	0xbf7db8bf	-0.99110025
21	0xbeaca590	-0.33720064
22	0xbe10c6d1	-0.14138342
23	0xbe83c1f3	-0.2573391
24	0xbf210a39	-0.62906224
25	0x3f2ec6c8	0.68272066
26	0x3f19bce7	0.6005387
27	0xbf36e935	-0.71449596
28	0x3f46365b	0.7742669
29	0x3f0fd00d	0.56176835
30	0x3e62695a	0.22110501
31	0x3e3e0d3c	0.18559736
32	0xbeae2ff8	-0.34020972
33	0xbe8d6b10	-0.27620745
34	0xbf175c54	-0.59125257
35	0xbea55bf5	-0.3229672
36	0x3f0f6874	0.5601876
37	0x3f14fb48	0.58195925
38	0xbe9c6268	-0.30543828
39	0xbf82c0b9	-1.0215064
40	0xbe62f047	-0.22161971
41	0xbfab61e2	-1.3389246
42	0x3e710206	0.23535928
43	0x3f5859fe	0.8451232
44	0xbd8ecda6	-0.06972818
45	0x3ea91c76	0.33029526
46	0x3ede3fcc	0.43408048
47	0x3d0c3901	0.03423405
48	0x3f8e78c7	1.1130608
49	0x3ec42a3c	0.38313472
50	0xbdb24a88	-0.08705622
51	0xbd673a74	-0.05645223
52	0x3e0c07b3	0.13674812
53	0xbd97a59b	-0.074046336
54	0x3da3e0f8	0.08001894
55	0x3ebb4c60	0.36581707
56	0x3e47e358	0.19520319
57	0x3e112866	0.14175567
58	0xbe80e3d8	-0.2517383
59	0xbe69203d	-0.22766204
60	0x3e47428a	0.19458976
61	0xbf20dd36	-0.6283754
62	0xbf55a366	-0.8345245
63	0xbd63ba0b	-0.055597346
64	0x3e9219e1	0.2853537
65	0xbee78361	-0.45217422
66	0x3e3925d2	0.18080834
67	0xbf6c9177	-0.9240946
68	0xbe928c5b	-0.28622708
69	0xbe8dcaa7	-0.27693674
70	0x3f0fbe03	0.5614931
71	0x3e0ee69b	0.13955157
72	0x3f73e17d	0.9526594
73	0xbf929735	-1.1452395
74	0xbe46ee8d	-0.19426937
75	0xbfac1a04	-1.3445439
76	0x3e855194	0.26038802
77	0x3e576084	0.21032912
78	0x3e302a64	0.1720367
79	0x3ecf6562	0.40507036
80	0xbd8c68b7	-0.0685591
81	0xbc8a9cda	-0.016920496
82	0x3d81b921	0.06334139
83	0xbf10d873	-0.56580275
84	0x3f271525	0.6526664
85	0xbd6818c6	-0.05666425
86	0xbe24f74f	-0.16109966
87	0xbf39bd1b	-0.7255418
88	0xbecd6bc7	-0.4012129
89	0x3ea57b73	0.32320747
90	0x3d656b86	0.056010745
91	0xbccba112	-0.024857078
92	0xbc08d460	-0.008351415
93	0x3f15e504	0.58552575
94	0xbdb6c7a2	-0.08924796
95	0xbeb43b84	-0.35201657
96	0x3edea948	0.43488526
97	0x3e129cb3	0.14317589
98	0xbe0de489	-0.1385671
99	0xbecd44e2	-0.40091616
100	0x3c520347	0.012818164
101	0x3d6c90fc	0.057755455
102	0xbe86626a	-0.2624696
103	0xbf45dea0	-0.77292824
104	0x3f0cc0b8	0.54981565
105	0x3e24ac47	0.16081344
106	0x3ede9629	0.43473938
107	0x3e0346b1	0.12819935
108	0x3e6ccf8a	0.23126045
109	0x3e8febe7	0.28109667
110	0xbf0075b4	-0.501796
111	0x3dad94c1	0.08475638
112	0xbecb0dfd	-0.3965911
113	0x3eba0908	0.36335015
114	0x3ead9555	0.33902994
115	0x3ff7c632	1.935736
116	0x3ed834c1	0.42227748
117	0x3ed2d945	0.41181388
118	0xbf11a10f	-0.5688638
119	0xbed241c2	-0.41065794
120	0xbe37e5f6	-0.17958817
121	0x3e71510c	0.23566073
122	0x3cb6586d	0.022258962
123	0xbe99ddc4	-0.30052006
124	0xbe83bd9a	-0.25730592
125	0xbef02527	-0.46903345
126	0xbceb9f0e	-0.028762367
127	0xbe4cea18	-0.20011175
128	0xbccb9695	-0.024852077
129	0x3ed045a8	0.40678144
130	0x3f1c6e2f	0.61105627
131	0x3d6aad7b	0.05729435
132	0xbf756b77	-0.95867103
133	0xbf66ddab	-0.9018199
134	0xbf36c324	-0.7139151
135	0xbf7b7737	-0.9822878
136	0xbe29eeaa	-0.1659495
137	0x3eb2eeaf	0.34947726
138	0xbd041faf	-0.03225678
139	0xbf248297	-0.64261764
140	0x3ecb091e	0.39655393
141	0x3db6f71f	0.08933853
142	0xbe290766	-0.16506729
143	0xbf891c62	-1.0711787
144	0xbf208fb1	-0.62719256
145	0x3e1a7783	0.15084653
146	0x3f5cbc84	0.8622515
147	0xbe2b80fb	-0.16748421
148	0x3fa76aec	1.3079505
149	0x3ed07127	0.40711328
150	0x3e557007	0.20843516
151	0xbf11c9df	-0.56948656
152	0xbeba1305	-0.36342636
153	0x3ea93b44	0.3305303
154	0x3de4efdd	0.11178563
155	0xbe5f92da	-0.21833363
156	0x3e63deca	0.22252956
157	0x3a06916c	0.0005133364
158	0x3e0f20c3	0.13977341
159	0xbf304687	-0.68857616
160	0x3ffde554	1.983561
161	0xbecb8e1b	-0.39756855
162	0x3f4cc73d	0.79991513
163	0xbf1cef17	-0.6130232
164	0xbe25ba4d	-0.1618435
165	0x3cbb981a	0.022899676
166	0x3d9972fb	0.07492634
167	0x3e2db7d0	0.1696465
168	0xbc950ba9	-0.018194037
169	0x3c7d48b0	0.015459225
170	0x3ebc27b1	0.36749032
171	0x3f554ce4	0.8332045
172	0x3d24df06	0.040251754
173	0x3eaecaa3	0.34138975
174	0xbf133abe	-0.5751151
175	0xbf0d62b5	-0.5522874
176	0xbf82b63a	-1.0211861
177	0xbe4b5626	-0.19857082
178	0xbe5c9e12	-0.21544674
179	0x3eae6213	0.340592
180	0x3f07c20f	0.53030485
181	0x3c17c77e	0.009263871
182	0xbc8342ce	-0.016023066
183	0x3ea5c33f	0.32375523
184	0x3f607d61	0.87691313
185	0x3e3a836e	0.18214199
186	0x3e8df132	0.2772308
187	0x3e8ef35b	0.2792004
188	0x3e7bcd82	0.24590114
189	0xbd9996f7	-0.074994974
190	0xbf0301ee	-0.5117482
191	0x3efb8e6a	0.4913209
192	0xbc6cabe2	-0.014445277
193	0xbf296729	-0.66173035
194	0x3bab75ff	0.005232572
195	0xbd997b3a	-0.07494207
196	0x3ef44a92	0.47713143
197	0x3d49f66a	0.049307264
198	0xbc47f1c6	-0.012203639
199	0x3d79d46b	0.060993593
200	0xbf279a8d	-0.654702
201	0xbe5841b4	-0.21118814
202	0x3f55bdee	0.83492935
203	0xbd9fe33f	-0.07807016
204	0xbf874bde	-1.0570028
205	0x3f3a1b8a	0.7269827
206	0xbe072da6	-0.13201007
207	0xbf12e6fb	-0.573837
208	0xbe7d1949	-0.24716677
209	0xbeaab8f6	-0.3334424
210	0xbf6fb3cb	-0.9363372
211	0x3e8547ef	0.26031443
212	0x3f0e2fee	0.55541885
213	0x3deabe78	0.1146211
214	0xbefe1c61	-0.49631026
215	0xbea37464	-0.31924736
216	0xbea81cbb	-0.3283442
217	0x3d9a4e39	0.07534451
218	0xbf251c70	-0.6449652
219	0x3d147ea4	0.036253586
220	0xbf004690	-0.5010767
221	0xbe2a01a6	-0.16602191
222	0xbea05a5c	-0.3131894
223	0x3e0f73cd	0.14009018
224	0x3f242a3f	0.6412696
225	0x3e9146dd	0.28374377
226	0xbe96cb1d	-0.29451838
227	0xbc25ac94	-0.010111947
228	0x3f66ceed	0.90159494
229	0x3f94097a	1.1565392
230	0xbf3c524d	-0.7356308
231	0xbea19140	-0.3155613
232	0x3d991f91	0.07476724
233	0xbe297152	-0.16547135
234	0xbf0274d0	-0.5095949
235	0x3ed7ac1e	0.42123502
236	0x3f2c1560	0.67220116
237	0xbf28b05b	-0.658941
238	0xbf854cd6	-1.0414073
239	0x3d01e9b3	0.031717014
240	0xbd9cd02a	-0.07656892
241	0xbe6b7c8b	-0.22996728
242	0xbdd75a6f	-0.10515296
243	0xbfbf944b	-1.496713
244	0x3ea0a438	0.3137529
245	0xbe0dc6bc	-0.13845342
246	0xbf341a32	-0.7035247
247	0xbe0bde64	-0.13659054
248	0x3f1bf393	0.6091854
249	0x3d34e1fd	0.04416083
250	0x3ee6b277	0.45058033
251	0x3f77b9b4	0.96767735
252	0x3f0e1064	0.5549376
253	0xbd9f7e32	-0.07787742
254	0xbec72440	-0.38894844
255	0xbf4eacc8	-0.80732393

fc1.bias f4 [128]
0	0x3e5c1f29	0.21496262
1	0xbe7ec968	-0.24881518
2	0x3db40439	0.08789868
3	0xbf1cc755	-0.61241657
4	0xbe57e836	-0.21084675
5	0xbb8a4194	-0.0042192433
6	0xbdc939d1	-0.09825481
7	0xbdf43c91	-0.119256146
8	0xbe6822ce	-0.22669527
9	0xbcba37e7	-0.022731734
10	0x3f05960b	0.5218207
11	0x3f23500d	0.6379402
12	0x3ebd8cff	0.37021634
13	0xbf40bb20	-0.7528553
14	0xbee42cfc	-0.4456557
15	0xbf3fed6b	-0.74971646
16	0xbe7a303b	-0.24432461
17	0x3f0cf9b6	0.5506853
18	0xbea37a9e	-0.31929487
19	0x3df62f6b	0.12020763
20	0xbd48e6e7	-0.04904833
21	0xbf3588fa	-0.70912135
22	0xbe5f420f	-0.21802543
23	0xbbd74b19	-0.0065702316
24	0x3d85c068	0.06530839
25	0xbe23f8b5	-0.16012843
26	0xbe8666fa	-0.2625044
27	0xbf15d1a6	-0.58523023
28	0xbed72abb	-0.42024788
29	0x3d98a77e	0.074538216
30	0x3e96177c	0.29314792
31	0xbf0fbf68	-0.5615144
32	0xbd4ba76e	-0.04972022
33	0xbf34038f	-0.7031793
34	0xbe204704	-0.1565209
35	0xbf3ff461	-0.7498227
36	0xbf3e2093	-0.74268454
37	0x3e1c8fc2	0.15289214
38	0x3f099465	0.5374206
39	0x3dc06e33	0.09396019
40	0xbf131f8e	-0.57470024
41	0xbe970f7f	-0.2950401
42	0xbf45af33	-0.7722046
43	0x3e040391	0.12891985
44	0xbe01f199	-0.12689818
45	0xbe1eb3da	-0.15498295
46	0x3c167a05	0.009184365
47	0xbd252450	-0.040317833
48	0x3dda04d1	0.1064545
49	0xbef6a544	-0.48172963
50	0xbedeade7	-0.43492052
51	0xbdce8630	-0.10084188
52	0xbef658aa	-0.4811452
53	0x3dd813dc	0.10550663
54	0xbef46417	-0.47732612
55	0xbe898d7b	-0.26865754
56	0xbec4ed9b	-0.3846253
57	0xbf03cf66	-0.5148834
58	0xbddf17cc	-0.10893211
59	0xbf1c7bb6	-0.6112627
60	0xbf0f529c	-0.55985427
61	0x3e90eb6d	0.28304616
62	0x3e13e7e2	0.14443925
63	0xbd18eceb	-0.037335318
64	0x3e5f241c	0.21791118
65	0xbef9f749	-0.48821476
66	0xbf2760b9	-0.6538196
67	0xbef2aa41	-0.47395518
68	0x3f0409da	0.5157753
69	0xbeee14e0	-0.465003
70	0xbe3c9dfa	-0.18419638
71	0xbec1d296	-0.37855977
72	0xbbbb14f7	-0.0057092863
73	0x3f0c36ac	0.5477092
74	0xbe831131	-0.25599054
75	0x3ec1f7cc	0.37884367
76	0xbd72f394	-0.059314325
77	0xbb9dd94f	-0.004817165
78	0xbe8c67f5	-0.27423063
79	0x3e2f8d73	0.17143802
80	0xbede13b1	-0.43374398
81	0x3e4cfe7d	0.20018955
82	0xbc90938d	-0.017648483
83	0xbe8f88ba	-0.28034002
84	0x3e61808b	0.22021692
85	0x3dafbb12	0.08580603
86	0xbf32ea02	-0.6988832
87	0xbf2ff356	-0.68730676
88	0x3c51ade3	0.0127978055
89	0xbaaaf8c7	-0.0013044112
90	0x3e8d887e	0.27643198
91	0xbe468374	-0.19386083
92	0xbe233cf5	-0.15941222
93	0x3f02d5af	0.51107305
94	0xbeac61c5	-0.33668342
95	0x3ea6a176	0.3254506
96	0xbf39c179	-0.7256084
97	0xbf1ee310	-0.6206522
98	0x3ef0d2d6	0.47035855
99	0x3e66ea72	0.22550371
100	0x3f2e4cc5	0.6808589
101	0xbf0f1a78	-0.55899763
102	0x3b22040f	0.0024721657
103	0x3e7675cb	0.24068372
104	0xbdad87ae	-0.084731445
105	0xbeb30b13	-0.34969386
106	0xbe8740fa	-0.2641676
107	0x3e189d0a	0.14903656
108	0x3e2dd0b0	0.16974139
109	0xbefe70ff	-0.49695584
110	0xbc03b643	-0.00803906
111	0xbf41499a	-0.7550293
112	0xbf06e67b	-0.52695435
113	0x3f15def1	0.58543307
114	0xbf4a684d	-0.790654
115	0xbec601ef	-0.3867335
116	0xbf1a54c0	-0.6028557
117	0xbeb6003e	-0.3554706
118	0xbf23dd8e	-0.6400994
119	0xbe96fd90	-0.29490328
120	0xbf2d7302	-0.67753613
121	0xbe63676b	-0.2220742
122	0x3d70f4b6	0.058827125
123	0xbe83e6e2	-0.25762087
124	0x3f509159	0.8147178
125	0x3dafbdaa	0.085810974
126	0xbe96d674	-0.2946049
127	0xbd37915b	-0.044816356

fc2.weight f4 [128, 128]
0	0xbba38140	-0.004989773
1	0x3e9dc212	0.30812126
2	0xbf99aa3e	-1.2005079
3	0xbeb98582	-0.3623467
4	0x3ea8c4a9	0.3296254
5	0xbf2c587a	-0.67322505
6	0xbe5079e1	-0.20358993
7	0xbf50dd66	-0.8158783
8	0x3c37d62d	0.011220497
9	0x3ed392c0	0.413229
10	0x3e6c0f1f	0.23052643
11	0x3ecb016c	0.39649522
12	0x3eee1050	0.4649682
13	0x3e6cf99e	0.23142096
14	0xbf67327f	-0.90311426
15	0xbf293969	-0.66103226
16	0xbf419ff2	-0.7563468
17	0xbdf5ef80	-0.120085716
18	0xbef84ba8	-0.4849522
19	0x3ea56c84	0.32309353
20	0x3f2c5f24	0.67332673
21	0x3ebbab30	0.36654043
22	0x3f0c2a95	0.54752475
23	0x3c29f176	0.01037251
24	0x3f052183	0.5200426
25	0x3db97e00	0.09057236
26	0x3ea8afb9	0.32946566
27	0xbdb583ef	-0.08863055
28	0x3f210dbb	0.62911576
29	0xbf2ed97c	-0.68300605
30	0x3d4ba896	0.049721323
31	0x3e65dae9	0.22446789
32	0xbd8fc7b1	-0.0702051
33	0xbf97fc15	-1.1873804
34	0x3f60c2fa	0.8779751
35	0x3e136c90	0.14396882
36	0xbeb8885a	-0.36041528
37	0x3ee59468	0.44839787
38	0x3e1f44b0	0.15553546
39	0x3f2ee9d8	0.6832557
40	0xbecf8ddf	-0.40537927
41	0x3c7dfce7	0.015502191
42	0xbf203859	-0.6258598
43	0x3da1322d	0.078708984
44	0x3e502e66	0.203302
45	0xbebf3d6f	-0.37351558
46	0x3ea21d6f	0.3166308
47	0xbf23ec40	-0.64032364
48	0x3e4fd5a4	0.20296341
49	0x3f298c2f	0.6622953
50	0x3e63b31e	0.22236297
51	0x3e970ed4	0.295035
52	0x3f1139c5	0.56728774
53	0x3ec4c4d1	0.3843141
54	0xbd520a1e	-0.05127918
55	0x3ed402bc	0.41408336
56	0x3eb1079f	0.34576127
57	0xbcd1b7f1	-0.025600405
58	0x3adc45a8	0.0016805427
59	0xbe263bff	-0.16233824
60	0x3f134f98	0.57543325
61	0x3e9ecfdf	0.31017968
62	0xbd124c99	-0.03571758
63	0x3ecbc469	0.39798287
64	0x3c89ea4d	0.016835356
65	0xbfe5e0de	-1.7959249
66	0xbe1256ff	-0.14290999
67	0xbed91c9b	-0.42404637
68	0xbf8cb7cd	-1.0993592
69	0x3eb97d40	0.3622837
70	0xbe98e1f9	-0.29859903
71	0x3dd42d40	0.10360193
72	0xbedaa208	-0.42701745
73	0x3d72c002	0.059265144
74	0x3da4776c	0.080305904
75	0x3f28be3d	0.6591528
76	0xbf037262	-0.5134641
77	0x3e0a6674	0.13515645
78	0xbe46ff56	-0.1943334
79	0xbec3e6a2	-0.38261896
80	0xbf45d06a	-0.7727114
81	0x3e1c2aa7	0.15250646
82	0x3e7f1e65	0.24913938
83	0xbed04b15	-0.40682283
84	0xbf0456ca	-0.5169493
85	0x3ecea146	0.40357417
86	0x3f095467	0.5364441
87	0x3f326822	0.69690144
88	0x3f789f16	0.97117746
89	0xbe1e6516	-0.15468249
90	0x3f093442	0.53595364
91	0x3e7be42b	0.24598758
92	0x3fa5119d	1.2896
93	0x3f0a4dd8	0.5402503
94	0x3dabf8fc	0.083970994
95	0xbdd8239f	-0.10553669
96	0xbeb14fee	-0.34631294
97	0x3f535496	0.8255094
98	0xbe4ca313	-0.19984083
99	0xbf0fd7c4	-0.5618861
100	0x3cda2ac1	0.026631715
101	0x3edd0909	0.43170956
102	0x3e466f39	0.19378366
103	0x3eb5da2c	0.35518014
104	0x3ee866d2	0.45390946
105	0xbca4e3a3	-0.020128077
106	0xbdecdb51	-0.11565269
107	0x3e643694	0.22286445
108	0x3f0cccc7	0.54999965
109	0x3f034212	0.5127269
110	0x3d8cd87a	0.06877227
111	0x3f83427f	1.0254668
112	0xbde84716	-0.113416836
113	0x3eeca943	0.46222886
114	0x3f47cd7e	0.7804793
115	0x3f419846	0.75622976
116	0x3d710dad	0.058850933
117	0xbdd570ec	-0.10421929
118	0x3ea45df8	0.32102942
119	0x3f22c158	0.6357627
120	0x3cc35272	0.023843024
121	0xbf59aa59	-0.85025555
122	0xbf3c9725	-0.7366813
123	0x3ea6f7ab	0.3261083
124	0xbb54507f	-0.0032396612
125	0xbecab618	-0.39592052
126	0x3f400aad	0.7501629
127	0x3e007c2e	0.12547371
128	0xbe412cdf	-0.18864773
129	0x3ea76935	0.32697454
130	0xbe3fd700	-0.1873436
131	0xbdaefd6c	-0.0854443
132	0xbd222a4b	-0.039591115
133	0x3de12979	0.109942384
134	0x3c271f93	0.010200399
135	0x3d0bf1b4	0.034166053
136	0x3dfb51f9	0.122714944
137	0x3dd931de	0.106052145
138	0xbedc2de9	-0.43003777
139	0xbd54a8b8	-0.051918715
140	0xbdf46605	-0.11933521
141	0xbce53892	-0.027981076
142	0x3d3eeab7	0.04661056
143	0x3e3bcfe5	0.18341024
144	0x3e0e4849	0.13894762
145	0xbe6ede37	-0.23326956
146	0xbeccc46a	-0.39993602
147	0xbe36dc73	-0.17857532
148	0x3dc71605	0.09720997
149	0x3df5c20a	0.11999901
150	0xbde6361a	-0.11240788
151	0xbcbfa281	-0.023392918
152	0xbe30f059	-0.17279185
153	0x3dee9781	0.11649991
154	0xbc85e357	-0.016343756
155	0xbd8b1d58	-0.06792706
156	0xbd41966c	-0.047262594
157	0x3d67e63d	0.056616057
158	0xbdc7f03d	-0.09762619
159	0xbcf67652	-0.030085716
160	0x3cdb74b4	0.026789047
161	0x3c01943c	0.007908877
162	0x3e368bc6	0.17826757
163	0x3de8a248	0.11359078
164	0x3e027177	0.12738596
165	0xbd83f26b	-0.06442722
166	0xbeaee2b4	-0.34157336
167	0xbdd79218	-0.10525912
168	0xbea34e3d	-0.3189563
169	0xbe12b7e8	-0.14327967
170	0xbed718b3	-0.42011032
171	0xbe5a9b2d	-0.21348257
172	0xbe1309de	-0.14359233
173	0xbd8cedce	-0.06881295
174	0xbe0f9d91	-0.1402495
175	0x3c9414e8	0.018076375
176	0xbdd48b90	-0.10378182
177	0xbd7d7511	-0.06187922
178	0xbde425e6	-0.11140041
179	0x3cff17d5	0.031139294
180	0x3e99c8cc	0.30036008
181	0xbd7c48da	-0.061592914
182	0x3e4a8fe6	0.19781455
183	0x3e4011a1	0.18756725
184	0x3e650b8f	0.2236769
185	0xbe871616	-0.26384038
186	0x3dad4c00	0.084617615
187	0x3d87fa7b	0.06639572
188	0x3ba436b4	0.005011404
189	0xbe96fed1	-0.29491284
190	0xbe39c9b1	-0.18143345
191	0xbd2b10ea	-0.041764177
192	0xbe87d56d	-0.26530018
193	0xbecfaf6d	-0.40563527
194	0xbdf2d127	-0.11856299
195	0xbc9bf68d	-0.019038463
196	0xbf33f435	-0.70294505
197	0xbd9b4f46	-0.075834796
198	0xbd2b26b3	-0.041784953
199	0x3c23089d	0.009950784
200	0xbeaa9014	-0.33313048
201	0xbe614284	-0.2199803
202	0xbe0166e9	-0.12636913
203	0xbdf5d99c	-0.12004396
204	0xbdf9dfed	-0.122009136
205	0x3dec2c7f	0.115319245
206	0xbef1bb07	-0.47213003
207	0xbded46a4	-0.11585739
208	0xbda35f7e	-0.07977198
209	0xbe6beb6c	-0.23039025
210	0x3c867fbc	0.01641833
211	0x3ddd80f7	0.10815614
212	0xbedec9de	-0.43513387
213	0xbd85902e	-0.06521641
214	0x3dac148c	0.084023565
215	0x3de94e7f	0.11391925
216	0x3e47a730	0.1949737
217	0x3d427cff	0.047482487
218	0xbf2ec43b	-0.68268174
219	0xbd261e2b	-0.040556114
220	0xbd6fc6bb	-0.058539134
221	0xbebb5fd6	-0.36596555
222	0xbe23c62f	-0.1599357
223	0xbe8dbc15	-0.27682558
224	0xbe448e13	-0.19194822
225	0x3e099c2f	0.13438486
226	0xbe42e371	-0.19032075
227	0x3e43f380	0.19135857
228	0xbe3ddad4	-0.18540508
229	0x3dfa105c	0.122101516
230	0x3d8df0aa	0.06930669
231	0xbeb70aad	-0.35750332
232	0x3dccef7f	0.10006618
233	0x3dbaacab	0.09114965
234	0xb9c76c41	-0.00038036893
235	0xbd59c895	-0.053169806
236	0xbd08c6e5	-0.033392806
237	0xbbe92a8b	-0.007115667
238	0xbe6c33e1	-0.23066665
239	0x3e141f33	0.14465027
240	0x3ddfa902	0.109209076
241	0xbe40bf86	-0.1882306
242	0x3e200933	0.15628509
243	0x3e467613	0.19380979
244	0x3b0a1680	0.002107054
245	0xbd443632	-0.047903247
246	0x3dd26349	0.102728434
247	0x3c8ed8d2	0.017437372
248	0x3dfdbfff	0.12390136
249	0xbd449b63	-0.04799975
250	0xbea72e0b	-0.32652315
251	0x3e8fbb9d	0.28072825
252	0xbe4af59e	-0.19820258
253	0x3db1b1ff	0.08676528
254	0x3e12420a	0.14283004
255	0xbe255a3e	-0.16147706

fc2.bias f4 [128]
0	0x3dbe7dd0	0.093013406
1	0xbe44c690	-0.1921637
2	0xbeb8be80	-0.3608284
3	0xbd8f64e5	-0.07001666
4	0xbedf99a8	-0.43671918
5	0x3e9464ce	0.28983158
6	0xbd6990bb	-0.05702279
7	0xbe4d3012	-0.20037869
8	0x3e5c7459	0.21528758
9	0xbd8e268c	-0.06940946
10	0xbda4e3e5	-0.0805128
11	0xbe011778	-0.12606609
12	0xbee521f9	-0.44752482
13	0xbed7ac32	-0.42123562
14	0xbeb16802	-0.34649664
15	0x3c5402c2	0.012940111
16	0xbea78a90	-0.32722902
17	0xbd60d7c5	-0.054893274
18	0x3d797b6c	0.06090872
19	0xbda78979	-0.08180518
20	0xbe62e841	-0.2215891
21	0x3da55b7a	0.080740884
22	0x3ed6f484	0.41983426
23	0xbe6619ac	-0.2247073
24	0xbe3407a1	-0.17581035
25	0x3d16b106	0.036789916
26	0x3ed6559e	0.41862196
27	0xbe2e6907	-0.17032252
28	0x3e4c7f64	0.1997047
29	0xbe83b513	-0.25724086
30	0xbe7f0efe	-0.24908063
31	0x3cb2890d	0.021793867
32	0xbebbbb3e	-0.36666292
33	0xbec1a229	-0.3781903
34	0xbe3b47ec	-0.18289155
35	0xbda44745	-0.08021406
36	0xbe4c9f1e	-0.19982573
37	0x3e2744cf	0.16334842
38	0xbe418d4e	-0.1890156
39	0x3d7e4910	0.062081397
40	0x3e191b63	0.14951853
41	0xbdf89033	-0.12136879
42	0x3e6195ce	0.22029802
43	0xbde15bea	-0.11003859
44	0xbe2ecd1a	-0.17070428
45	0x3e091c2f	0.13389657
46	0xbe2e8b01	-0.17045213
47	0xbd883042	-0.066498294
48	0xbea94ba1	-0.33065513
49	0x3d92701b	0.07150289
50	0xbe15d279	-0.1463107
51	0xbd9a887e	-0.07545565
52	0x3d0a4893	0.03376062
53	0x3a0afa03	0.0005301537
54	0xbda4d3a0	-0.08048177
55	0xbe6a3a72	-0.22873858
56	0x3e7058b7	0.23471342
57	0x3ede5b51	0.43429044
58	0x3cfd39aa	0.030911285
59	0x3e85ad90	0.2610898
60	0xbd4afc34	-0.049556926
61	0xbea8e648	-0.3298819
62	0xbeef47a5	-0.46734348
63	0xbe1c5e6d	-0.15270396
64	0xbe9e4f94	-0.30920088
65	0xbe82e4c6	-0.25565165
66	0xbecf9b7a	-0.40548307
67	0x3e661acb	0.22471158
68	0xbe86958c	-0.2628597
69	0xbd10e155	-0.035371143
70	0xbe81aa91	-0.25325444
71	0xbe9659c4	-0.2936536
72	0x3dafbb01	0.0858059
73	0xbe6833c5	-0.22675999
74	0xbd921db7	-0.07134574
75	0xbe058989	-0.13040747
76	0xbe183642	-0.14864448
77	0x3e2bf654	0.16793185
78	0xbdfb346f	-0.1226586
79	0xbe37dea9	-0.17956032
80	0xbd6251c2	-0.05525375
81	0x3c81cefd	0.01584577
82	0xbea07d75	-0.31345716
83	0x3f167937	0.5877871
84	0xbe002fee	-0.12518284
85	0x3ded0970	0.11574066
86	0x3cacf056	0.021110695
87	0x3d4f17b2	0.050559707
88	0xbd24b398	-0.040210336
89	0xbe732b46	-0.23746976
90	0xbeaddca2	-0.33957392
91	0xbe29218a	-0.165167
92	0xbd44744f	-0.047962483
93	0xbea28fd2	-0.3175035
94	0xbd1c0c52	-0.038097687
95	0x3ee3be0f	0.4448094
96	0xbdf6ef55	-0.12057368
97	0xbe432917	-0.19058643
98	0x3e125d88	0.14293492
99	0xbf1d4ea4	-0.6144812
100	0xbe865a2b	-0.26240668
101	0xbd104634	-0.0352232
102	0xbe64699f	-0.22305916
103	0x3ed2bc86	0.41159457
104	0x3eb68d53	0.35654697
105	0x3e4bdce6	0.19908485
106	0x3c8ccc7a	0.017187346
107	0x3f0083bc	0.5020101
108	0xbd1023e8	-0.035190493
109	0xbe4a769b	-0.19771807
110	0x3e593b05	0.2121392
111	0x3cfbe47f	0.030748604
112	0xbdea9cda	-0.11455698
113	0xbe05ede7	-0.13079034
114	0xbd47a9f2	-0.048746057
115	0x3d10a5f1	0.035314504
116	0x3dfcab64	0.12337378
117	0x3d98b441	0.07456256
118	0xbe8c2a3d	-0.27375975
119	0x3c958ba8	0.01825507
120	0xbd01eda9	-0.03172079
121	0xbe23a959	-0.1598257
122	0x3eee9f56	0.4660594
123	0xbe3e1247	-0.1856166
124	0xbdf2960a	-0.11845024
125	0xbd7d37c1	-0.06182075
126	0xbea00e01	-0.31260684
127	0x3ec4f84e	0.3847069

fc3.weight f4 [64, 128]
0	0x3eafcb76	0.34334916
1	0x3d20362a	0.039114155
2	0x3e05e24e	0.1307461
3	0x3d2c9016	0.0421296
4	0x3eac1ecd	0.3361725
5	0x3dd557ed	0.10417161
6	0x3d38e366	0.04513874
7	0xbd6b3b78	-0.05742976
8	0x3dc0f6a2	0.094220415
9	0x3e67ce9f	0.22637413
10	0xbce268ca	-0.027637858
11	0xbed40348	-0.41408753
12	0x3ebd0d8b	0.36924395
13	0x3e3798b3	0.17929344
14	0x3d052e95	0.032515127
15	0xbd4b827f	-0.049684998
16	0x3d95d29c	0.07315561
17	0x3c406dbe	0.011744915
18	0x3e9f6279	0.31129816
19	0xbcad2293	-0.02113465
20	0xbdb1c68d	-0.08680449
21	0x3dd8eeb6	0.105924055
22	0x3e61b7e4	0.22042805
23	0x3e5f730a	0.21821228
24	0x3e64e8f7	0.22354494
25	0xbd2f37d4	-0.04277785
26	0x3efe2f00	0.49645233
27	0xbf9d1761	-1.227276
28	0x3da69228	0.08133346
29	0xbd39d331	-0.045367423
30	0xbc453624	-0.012036834
31	0x3f05cc2a	0.52264655
32	0x3e611966	0.21982345
33	0x3e10012e	0.1406295
34	0x3d7dec8e	0.061993174
35	0x3d0b878c	0.034064814
36	0x3d87e11c	0.06634733
37	0x3e897b7b	0.2685202
38	0x3df5a8a8	0.11995059
39	0x3f3f835c	0.74809813
40	0x3eda0ac3	0.42586336
41	0x3d873219	0.06601352
42	0x3de15803	0.11003115
43	0xbe8fb4e5	-0.280677
44	0x3d6a24b9	0.057163928
45	0x3ddb2d26	0.10701971
46	0x3daa1569	0.08304865
47	0x3cc3f274	0.023919322
48	0x3ec2a082	0.38013083
49	0x3e5ab693	0.21358709
50	0x3e8edf75	0.2790486
51	0xbb8e8481	-0.004349292
52	0xbdbfcca6	-0.093652055
53	0x3d661e1e	0.056181066
54	0xbcf37352	-0.029718075
55	0x3e39a944	0.18130976
56	0xbf08eb51	-0.53484064
57	0xbff4ab43	-1.9114765
58	0xbe81b32d	-0.25332013
59	0x3ee86b2d	0.4539427
60	0x3c1ea7c8	0.009683557
61	0x3e0e004d	0.13867302
62	0x3d880dc3	0.0664325
63	0x3e8aa9d3	0.2708269
64	0x3d9e82ce	0.07739793
65	0x3db0b8dc	0.08629009
66	0x3ea00897	0.31256554
67	0xbe0ef9ea	-0.13962522
68	0x3d0c4d29	0.034253273
69	0xbb8950f8	-0.0041905604
70	0x3d5cedc8	0.053937703
71	0x3e4fba83	0.20285992
72	0xbd228ebd	-0.039686907
73	0xbcc33351	-0.02382818
74	0x3d2d31c5	0.042283792
75	0x3da5ba2f	0.08092152
76	0x3d08691b	0.03330336
77	0x3e928b11	0.28621724
78	0x3dcab0f8	0.09897035
79	0xbe9542e7	-0.29152605
80	0xbd5ca4b6	-0.053868018
81	0xbd2f56aa	-0.04280726
82	0xbc301be0	-0.010748833
83	0xbf0c45a9	-0.5479379
84	0xbf1d421d	-0.61429006
85	0x3ec7f964	0.39057457
86	0x3d988d96	0.074488804
87	0xbee2fa1f	-0.44331452
88	0xbd094e2e	-0.033521824
89	0x3e4c9a81	0.19980814
90	0xbdf4053c	-0.11915061
91	0xbe5518f5	-0.20810302
92	0x3e0c5491	0.13704135
93	0x3dec7cfd	0.11547277
94	0x3d5a51b3	0.05330057
95	0x3f0ebe2c	0.5575893
96	0x3d4cffdc	0.050048694
97	0x3e0f6a16	0.14005312
98	0x3e374ba9	0.17899956
99	0x3e540b7f	0.2070751
100	0x3ec49e53	0.38402042
101	0x3e040e3e	0.12896058
102	0x3dff9364	0.124792844
103	0xbfdba7ca	-1.716058
104	0x3e46f964	0.19431072
105	0xbe91afa1	-0.28454307
106	0x3e5e2e96	0.21697459
107	0x3e75924a	0.23981586
108	0x3c903c0d	0.01760676
109	0x3db308e1	0.08741928
110	0xbf52c3e2	-0.82330143
111	0x3d8a8ebc	0.06765506
112	0xbe31b66c	-0.17354745
113	0x3be20ffc	0.006898878
114	0x3d61323f	0.05497956
115	0x3eba3e39	0.36375597
116	0x3da72704	0.081617385
117	0x3e8ba483	0.2727395
118	0x3dde6783	0.10859587
119	0x3b6eae1d	0.0036419698
120	0x3c2585a9	0.010102668
121	0xbdb985b9	-0.09058709
122	0xbf512d44	-0.81709695
123	0x3ef95022	0.4869395
124	0x3f42344e	0.7586106
125	0x3ec3edc3	0.38267335
126	0x3e10919c	0.14118046
127	0x3efc18d2	0.49237686
128	0xbf19477e	-0.59874713
129	0xbe665cd6	-0.22496352
130	0x3f20e41d	0.62848073
131	0xbda961b4	-0.082705885
132	0xbf88617c	-1.065475
133	0x3e4c6ad0	0.1996262
134	0x3cffe96d	0.031239236
135	0xbd4d639f	-0.050143834
136	0xbfc07378	-1.5035238
137	0xbf2af9b1	-0.6678725
138	0x3cb00998	0.02148895
139	0x3e8fd7b1	0.28094247
140	0x3f0934f1	0.5359641
141	0xbf3d2c0d	-0.7389534
142	0xbf97518c	-1.1821761
143	0xbdd4ebdb	-0.10396548
144	0xbebf5760	-0.3737135
145	0xbd3c46b7	-0.045965876
146	0xbf573722	-0.840685
147	0xbd062f1e	-0.03275978
148	0x3f0fa992	0.5611812
149	0x3ec07d61	0.37595657
150	0x3ed4cbb3	0.4156166
151	0x3f3c2a91	0.7350245
152	0x3f54bc3a	0.8309971
153	0x3db84268	0.08997041
154	0xbf5303fb	-0.8242795
155	0x3f2a4421	0.66510206
156	0xbed1bdf9	-0.4096525
157	0x3d87c754	0.06629816
158	0xbea0cacb	-0.3140472
159	0xbeb365c1	-0.3503857
160	0x3ddfd19e	0.10928653
161	0x3e81229a	0.2522171
162	0xbe950843	-0.29107866
163	0x3db4372d	0.087995864
164	0xbea2f98c	-0.31831014
165	0x3ede903e	0.43469423
166	0xbe86c02c	-0.2631849
167	0xbf0339af	-0.51259893
168	0x3db7f51d	0.089822985
169	0xbcb91e90	-0.022597581
170	0x3de34605	0.110973395
171	0x3f3b9ee4	0.7328932
172	0xbdad227f	-0.08453845
173	0x3ed45836	0.4147355
174	0xbee7cb25	-0.45272174
175	0xbdb67a79	-0.089100786
176	0xbf950962	-1.1643488
177	0xbe62f5cb	-0.22164075
178	0xbf43d88a	-0.7650229
179	0x3d714aaa	0.058909096
180	0xbbb0ff93	-0.0054015606
181	0xbdab2e51	-0.083584435
182	0x3d593b11	0.053034846
183	0x3f137604	0.5760195
184	0x3ec869ca	0.3914321
185	0x3f19746a	0.5994326
186	0x3f2bf17e	0.6716536
187	0x3d986432	0.07440986
188	0x3d6d2839	0.057899687
189	0x3d304a9d	0.043039907
190	0xbf961e08	-1.1727915
191	0xbb3dbb5d	-0.0028950789
192	0xbf75cf7d	-0.96019727
193	0xbea2228e	-0.31666988
194	0xbf6d7852	-0.9276172
195	0x3e84265a	0.2581051
196	0xbe6a806b	-0.2290055
197	0xbab1c5ae	-0.0013562941
198	0xbf55d906	-0.83534276
199	0x3ddea20a	0.1087075
200	0x3f3e6305	0.7436984
201	0xbe6f9354	-0.23396045
202	0x3dffe3a7	0.12494593
203	0xbe8c825a	-0.274432
204	0xbf86fdd1	-1.0546209
205	0x3ed0d29e	0.40785688
206	0xbf36e16e	-0.7143773
207	0xbf53d1da	-0.82742083
208	0x3f44351b	0.7664353
209	0xbd90a17c	-0.07062051
210	0xbe939b65	-0.28829494
211	0x3f351697	0.70737594
212	0x3e076478	0.1322192
213	0xbf10a22a	-0.5649744
214	0xbc8e1266	-0.017342757
215	0x3f3eef6d	0.74584085
216	0xbd81183f	-0.06303453
217	0xbf728703	-0.9473726
218	0x3f016b2e	0.5055417
219	0xbf400c2c	-0.7501857
220	0x3db4d589	0.08829791
221	0x3e710f45	0.23540981
222	0x3db8cbb8	0.09023231
223	0x3f46af9b	0.776117
224	0x3a4ae4a5	0.0007739759
225	0xbe4c5b22	-0.1995664
226	0x3f137e84	0.5761492
227	0xbf878f8e	-1.0590684
228	0xbfa11887	-1.258561
229	0xbf48f70a	-0.7850195
230	0xbcd1c4c6	-0.025606524
231	0x3f4072e4	0.7517531
232	0x3edec961	0.43513015
233	0x3ef7a272	0.48366123
234	0xbda7ab21	-0.08186937
235	0xbf6f3fc7	-0.9345669
236	0x3c5f39c7	0.013624615
237	0xbeb1a87e	-0.34698862
238	0x3f74f2dd	0.9568308
239	0xbcb68545	-0.022280345
240	0x3e80061a	0.25004655
241	0xbdf9ba96	-0.121937916
242	0x3f6e4c47	0.9308514
243	0xbf4ea183	-0.807152
244	0x3dbef846	0.09324698
245	0x3ed1e34f	0.40993735
246	0xbbe679f0	-0.007033579
247	0x3c295f59	0.010337674
248	0xbf3483a4	-0.7051337
249	0xbf462b81	-0.7741013
250	0x3eeb84ef	0.45999858
251	0xbf81040f	-1.0079364
252	0xbf1d92cf	-0.6155214
253	0xbf7547ad	-0.95812494
254	0xbed62279	-0.41823176
255	0xbd42c99b	-0.047555547

fc3.bias f4 [64]
0	0x3e449c8a	0.1920034
1	0x3ec98bc4	0.39364445
2	0x3ea7cab7	0.32771847
3	0x3ebb0b63	0.36532125
4	0x3e3ed3fa	0.1863555
5	0x3e95d57e	0.29264444
6	0xbdde8ec2	-0.10867073
7	0xbe7c4936	-0.24637303
8	0xbdbf41fc	-0.093387574
9	0x3eb40dcc	0.35166776
10	0x3da636a2	0.08115889
11	0x3f1626a3	0.58652705
12	0xbecf7734	-0.40520632
13	0x3f2ed128	0.682879
14	0x3d3d1877	0.04616591
15	0x3f66ab97	0.90105575
16	0x3f17c36d	0.5928257
17	0xbddeab0a	-0.10872467
18	0xbd93e1a7	-0.07220774
19	0x3e1500bb	0.1455106
20	0xbd2acf86	-0.041701816
21	0xbca5b9ce	-0.0202302
22	0x3de1d012	0.110260144
23	0xbbd7e798	-0.0065888874
24	0x3f204ed5	0.6262029
25	0x3f1b7769	0.6072908
26	0x3f2daebe	0.6784476
27	0x3db7b7df	0.089706175
28	0x3e96656f	0.29374263
29	0x3ef67733	0.48137817
30	0xbdb3bf7e	-0.087767586
31	0x3e0cf7a6	0.13766345
32	0x3e8bdb25	0.27315632
33	0x3dbe07f8	0.09278864
34	0x3d52c9f9	0.051462147
35	0xbe03eeb6	-0.1288403
36	0xbcd8141c	-0.026376776
37	0xbe38b664	-0.18038327
38	0x3e0e58b5	0.13901027
39	0xbe1e6a77	-0.154703
40	0x3ddfa275	0.10919658
41	0x3e04312c	0.12909383
42	0x3cb22e88	0.021750703
43	0xbd9b3e96	-0.07580297
44	0x3dff7303	0.124731086
45	0xbe98ef51	-0.29870084
46	0xbd27dcdc	-0.040982112
47	0x3f06a08c	0.52588725
48	0x3f1dc9a9	0.61635834
49	0x3e09506a	0.13409582
50	0x3e22d5e6	0.15901908
51	0x3f1d8ad0	0.61539936
52	0x3f03b42a	0.51446784
53	0x3e348e3a	0.1763238
54	0x3e04d28e	0.12970945
55	0x3e3b0455	0.18263371
56	0x3bd113f8	0.0063805543
57	0xbc79ed9f	-0.015254407
58	0xbe0660a2	-0.131228
59	0xbd665982	-0.056237705
60	0xbce44436	-0.027864557
61	0x3d6e4efe	0.0581808
62	0x3e701ad0	0.23447728
63	0x3de7cbee	0.113181934

fc4.weight f4 [4, 64]
0	0xbee0fd54	-0.43943274
1	0x3ef530db	0.47888836
2	0xbe8bbf3e	-0.27294344
3	0x3e5a8487	0.21339618
4	0xbe82b61e	-0.2552957
5	0xbef5fe21	-0.48045447
6	0xbd326d25	-0.04356112
7	0x3f0c7af3	0.54875106
8	0xbe5e12c2	-0.21686843
9	0x3d8d5328	0.069006264
10	0xbedb1c9d	-0.42795268
11	0x3e7161d0	0.23572469
12	0x3eac1e62	0.3361693
13	0x3f50e4bf	0.8159904
14	0xbe811298	-0.25209498
15	0x3f3fbf45	0.7490123
16	0x3ed38909	0.41315487
17	0xbdd01a48	-0.10161263
18	0xbbc66577	-0.006054576
19	0x3f436817	0.76330703
20	0x3f27321b	0.6531083
21	0xbd799c34	-0.060939983
22	0xbe2e4a8c	-0.17020625
23	0xbd820c48	-0.06349999
24	0x3ee08aea	0.43855983
25	0xbf4b9f3b	-0.7953984
26	0x3f2e7d46	0.681599
27	0x3e03bcc6	0.1286498
28	0xbe5dfe40	-0.2167902
29	0x3e91ac48	0.28451753
30	0x3f94fac4	1.1639028
31	0xbefc166d	-0.4923586
32	0xbeb7a4ea	-0.35868007
33	0xbeeb45a3	-0.45951566
34	0xbea9d652	-0.33171326
35	0xbd89771a	-0.0671217
36	0xbec37ec8	-0.38182664
37	0xbdfa4d07	-0.12221723
38	0xbd45ae52	-0.048261948
39	0xbf06a6b4	-0.5259812
40	0xbecadd67	-0.39622042
41	0xbea069ce	-0.31330723
42	0x3d71e1b5	0.05905314
43	0x3ceb2509	0.028704183
44	0xbe413a91	-0.18869998
45	0xbf0b0916	-0.5431074
46	0x3d892dea	0.066982105
47	0x3e816008	0.2526858
48	0x3f01d48e	0.5071496
49	0x3ea459f6	0.32099885
50	0xbe8e79a5	-0.27827182
51	0x3e4e1592	0.20125416
52	0xbf63fca6	-0.89057386
53	0xbb910fbe	-0.0044269254
54	0xbe54647d	-0.20741458
55	0xbef46c4b	-0.4773887
56	0xbe7cdeab	-0.24694316
57	0xbb0a9c00	-0.0021150112
58	0xbd202d01	-0.03910542
59	0x3f903f59	1.1269332
60	0xbe82e1dd	-0.25562945
61	0xbeb84fd8	-0.35998416
62	0xbf0487b4	-0.51769567
63	0x3afa4fd9	0.0019097283
64	0xbec13728	-0.37737393
65	0x3f1188d1	0.5684939
66	0xbe81b8b5	-0.25336233
67	0x3e8eaabf	0.27864644
68	0xbe9c3215	-0.3050696
69	0xbe6fdd07	-0.23424159
70	0x3d47c883	0.048775207
71	0x3e49d4fa	0.1971015
72	0xbe85e15b	-0.26148495
73	0x3e990bc6	0.29891795
74	0xbe936a47	-0.2879202
75	0x3e819bab	0.25314078
76	0x3ed75ff4	0.42065394
77	0x3f1b6e56	0.60715234
78	0xbeb8f876	-0.3612706
79	0x3f3cd69f	0.73764986
80	0x3ecca27f	0.39967725
81	0xba43a70e	-0.0007463553
82	0xbcb33eed	-0.021880591
83	0x3f3776e6	0.716658
84	0x3d142be0	0.036174655
85	0x3d97b8d7	0.07408302
86	0xbe767b16	-0.24070391
87	0x3c41176e	0.011785371
88	0x3f2e9d68	0.6820893
89	0xbe3e6db0	-0.1859653
90	0x3f0e1f79	0.55516773
91	0x3cfdf3aa	0.030999977
92	0xbed947c5	-0.42437568
93	0x3ee90d72	0.4551807
94	0xbdcff6d1	-0.10154498
95	0xbe834f5c	-0.25646484
96	0xbf03dc19	-0.5150772
97	0x3c9c7dec	0.019103013
98	0xbe9a31e3	-0.30116186
99	0xbe29426e	-0.16529247
100	0xbe7f38b7	-0.24923979
101	0xbdab60e5	-0.083680905
102	0x3eae33db	0.34023938
103	0xbf4c8db6	-0.79903734
104	0xbeb4887e	-0.35260385
105	0xbea07a79	-0.3134344
106	0xbc970db5	-0.018439153
107	0xbd0a0db3	-0.03370447
108	0xbf290d29	-0.66035706
109	0xbf85a585	-1.0441138
110	0xb99f4e91	-0.0003038538
111	0x3ee417d1	0.4454942
112	0x3f25d454	0.6477711
113	0x3e3082d9	0.17237414
114	0xbe98caa4	-0.29842103
115	0xbf292b76	-0.6608194
116	0xbea453f3	-0.32095298
117	0xbed75bc3	-0.42062196
118	0xbe7f2c01	-0.2491913
119	0xbea60b26	-0.3243038
120	0xbee58080	-0.448246
121	0x3d27f54f	0.04100543
122	0x3d74768d	0.05968337
123	0x3e8bd931	0.2731414
124	0xbefa44ab	-0.48880515
125	0xbe9e9df7	-0.30979893
126	0xbe65f07d	-0.2245502
127	0xbde1c8a6	-0.11024599
128	0xbf07c34f	-0.5303239
129	0x3f040e6a	0.51584494
130	0x3e71eeec	0.23626298
131	0x3e614187	0.21997653
132	0xbee7db28	-0.4528439
133	0xbe96cec2	-0.2945462
134	0xbcf06650	-0.029345661
135	0x3d26b7f5	0.04070278
136	0xbf4051fd	-0.75125104
137	0x3ee20ba0	0.44149494
138	0xbf23c89f	-0.63978
139	0xbebc48ed	-0.36774388
140	0xbe846146	-0.25855464
141	0x3f67dc3e	0.9057044
142	0xbee1b4a0	-0.44083118
143	0x3f46c95a	0.7765099
144	0x3eed0c93	0.46298656
145	0xbc51b54f	-0.012799575
146	0x3b380f81	0.0028085413
147	0x3f0cf26d	0.5505741
148	0xbe8b4772	-0.27202946
149	0x3d8024ec	0.06257042
150	0xbecd9e05	-0.40159622
151	0x3daefe6f	0.08544623
152	0x3f16a906	0.5885166
153	0xbec9ff66	-0.39452666
154	0x3f4a9eb0	0.7914839
155	0x3ea07c21	0.31344703
156	0xbf0960f4	-0.53663564
157	0x3ebaad20	0.3646021
158	0x3fb71d3c	1.4305797
159	0xbe88fcd6	-0.267554
160	0xbf23f650	-0.6404772
161	0xbf088d08	-0.53340197
162	0xbea04790	-0.31304598
163	0x3dad25e3	0.08454492
164	0xbefb2eba	-0.49059087
165	0x3d40ad59	0.047040317
166	0xbe6cc151	-0.2312062
167	0xbf735019	-0.95044094
168	0xbecb1391	-0.39663365
169	0xbea0c8fb	-0.31403336
170	0xbde7ac84	-0.113122016
171	0x3d6f68a1	0.05844939
172	0xbf27cc9d	-0.6554659
173	0xbebd46e6	-0.36968154
174	0x3b78ea2f	0.0037981381
175	0x3eb92c7f	0.3616676
176	0x3dac5f6e	0.08416639
177	0x3dd78c1e	0.10524772
178	0xbe8b63cb	-0.27224573
179	0xbe4b9314	-0.19880325
180	0xbea5ba99	-0.32368925
181	0xbcdadf04	-0.02671767
182	0xbee504ab	-0.44730124
183	0x3e6d50c6	0.23175344
184	0xbf1dead0	-0.6168642
185	0xbd52d6f8	-0.05147454
186	0xbd1213bd	-0.035663355
187	0x3f8fa6c6	1.122277
188	0xbe7da5aa	-0.24770227
189	0xbed657d8	-0.41863894
190	0xbee8b7dd	-0.45452777
191	0xbec6b9a9	-0.38813522
192	0xbe6e5b5b	-0.23277037
193	0x3e339dfb	0.17540734
194	0xbe95310e	-0.29138988
195	0x3e309498	0.17244184
196	0xbf04d6e9	-0.51890427
197	0xbe9513fe	-0.29116815
198	0x3d57a4c6	0.052647375
199	0x3f3fff4d	0.74998933
200	0xbe92827c	-0.28615177
201	0xbe6f78f0	-0.23385978
202	0xbd3ec1e0	-0.046571612
203	0x3df07b01	0.11742211
204	0x3ed31981	0.41230395
205	0x3f614159	0.8799034
206	0xbeb33850	-0.350039
207	0x3f1e325b	0.61795586
208	0x3f05a86b	0.5221011
209	0x3d0ebef0	0.03485006
210	0x3dc37c2c	0.09545168
211	0x3f174f8b	0.5910575
212	0xbd801792	-0.06254496
213	0x3c9db78c	0.019252561
214	0xbee104d4	-0.43948996
215	0xbc8fe625	-0.017565796
216	0x3ee389b0	0.44440985
217	0xbe05d0c4	-0.13067919
218	0x3f61e3d4	0.88238263
219	0x3f0392fb	0.5139615
220	0xbe9ba5d3	-0.3039995
221	0x3e4aa54d	0.1978962
222	0x3fbd58bb	1.4792703
223	0xbee30796	-0.44341725
224	0xbf0bbaf4	-0.5458214
225	0xbec80d3b	-0.39072594
226	0xbf0b4b56	-0.5441183
227	0x3d29a579	0.041417573
228	0xbebd1575	-0.36930433
229	0x3c87956d	0.016550744
230	0xbf24492f	-0.6417417
231	0xbf6ed002	-0.93286145
232	0xbf186ed8	-0.59544134
233	0xbeed9a82	-0.46406943
234	0xbd2a0e2d	-0.041517425
235	0xbd10c716	-0.035346113
236	0x3e64916f	0.22321104
237	0xbf0b6cee	-0.5446309
238	0x3d55424c	0.05206518
239	0x3cfecde6	0.03110404
240	0x3f1a5d5a	0.60298693
241	0x3f165975	0.5873025
242	0xbed86f2e	-0.42272323
243	0xbea15f4d	-0.3151802
244	0x3d767310	0.060168326
245	0x3eef0711	0.4668508
246	0xbe1f0464	-0.15529019
247	0xbef4a290	-0.47780275
248	0xbf2bf9af	-0.6717786
249	0x3d5c6468	0.053806692
250	0xbd8f0dad	-0.0698503
251	0x3f52f723	0.8240835
252	0x3db09c39	0.08623547
253	0xbefc2b42	-0.49251753
254	0xbf2ffb51	-0.68742853
255	0xbe8a78c2	-0.27045256

fc4.bias f4 [4]
0	0x3dbba73e	0.09162758
1	0x3e918c86	0.28427523
2	0x3dde50f0	0.10855281
3	0xbef7bbdc	-0.48385513
