checkpoint2.pth (torch, 107888 bytes, 8 tensors)

fc1.weight f4 [128, 8]
0	0x3e731b96	0.23740992
1	0xbf162625	-0.58651954
2	0x3f117e49	0.5683332
3	0x40130f9c	2.2978277
4	0x3dc2ed5f	0.09517931
5	0xbd387fbe	-0.0450437
6	0xbe490074	-0.19629079
7	0x3e8dce3e	0.27696413
8	0x3fbb8060	1.4648552
9	0xbc5b8321	-0.013397963
10	0x3f093306	0.5359348
11	0x3dcfb8b4	0.10142651
12	0xbf439662	-0.7640134
13	0xbe204982	-0.15653041
14	0x3c793b00	0.015211821
15	0x3d4a972b	0.04946057
16	0x3f8fdbc4	1.1238942
17	0xbe884b45	-0.26619926
18	0xbe6159f1	-0.22006966
19	0xbe56890e	-0.2095072
20	0xbeeae491	-0.45877507
21	0xbd1f14f2	-0.038838334
22	0xbe566199	-0.20935668
23	0x3d33ade1	0.043866996
24	0xbdb7849d	-0.08960841
25	0x3edba487	0.42898962
26	0xbf2ff511	-0.68733317
27	0xbf4d945e	-0.80304515
28	0x3f88fee2	1.0702784
29	0xbe33ebd5	-0.17570432
30	0x3ea04101	0.31299594
31	0xbe7a5a3e	-0.24448487
32	0xbf0494cc	-0.51789546
33	0x3e478eab	0.19488017
34	0xbec9d38b	-0.39419207
35	0x3e0c830a	0.13721862
36	0x3e1acc71	0.1511705
37	0x3f8474c6	1.0348136
38	0xbec3ae7a	-0.38219053
39	0xbf4798c3	-0.7796747
40	0x3eaebc22	0.3412791
41	0xbd630aeb	-0.055430334
42	0x3c8c5ef9	0.01713513
43	0x3da59485	0.080849685
44	0x3fbd56b1	1.4792081
45	0xbedab081	-0.42712787
46	0xbe19032d	-0.14942618
47	0x3e589ba5	0.21153124
48	0x3f5ea0ba	0.86964
49	0x3ddf1c39	0.10894055
50	0x3e32eea9	0.17473854
51	0xbdfe44db	-0.12415477
52	0x3eff6a53	0.49885806
53	0x3f076e88	0.5290303
54	0xbe7e7319	-0.24848594
55	0xbf102043	-0.5629923
56	0xbe864714	-0.26226103
57	0x3ea545d4	0.32279837
58	0x3d96d407	0.0736466
59	0xbe248244	-0.16065317
60	0xbf43034b	-0.761769
61	0xbeb5451f	-0.35404298
62	0xbe809444	-0.25113118
63	0xbda0f676	-0.07859509
64	0x3dd0c20d	0.10193262
65	0xbdf8cb4f	-0.12148153
66	0x3ec34839	0.3814104
67	0xbf0bb687	-0.5457539
68	0xbe4b2fcc	-0.19842452
69	0xbea38c45	-0.31942955
70	0xbe13ea0d	-0.14444752
71	0x3e9fb47c	0.31192386
72	0x3de51a99	0.11186714
73	0xbf373852	-0.7157031
74	0xbdc21291	-0.094761975
75	0xbfd19670	-1.6374035
76	0xbd43ce09	-0.047803912
77	0xbcfed7ee	-0.031108823
78	0xbd7d7fd2	-0.061889477
79	0x3e5f04c3	0.2177916
80	0xbf460aae	-0.77360046
81	0xbf3d41c7	-0.73928493
82	0x3e5e2431	0.21693493
83	0xbf3829c4	-0.7193873
84	0xbc859daf	-0.016310541
85	0x3d2903bd	0.04126333
86	0x3e5198d3	0.20468454
87	0xbe769085	-0.24078567
88	0xbebe5fb3	-0.37182388
89	0x3dd4e16b	0.103945576
90	0xbf5bd298	-0.85868216
91	0xbee9bf9f	-0.45654008
92	0x3f81becb	1.013635
93	0xbd85ac8b	-0.065270506
94	0xbe992777	-0.29912922
95	0xbdda9c12	-0.10674299
96	0x3eae6dcc	0.34068143
97	0x3bc14d17	0.0058990824
98	0x3eac6869	0.3367341
99	0x3ee067c7	0.43829176
100	0xbe419136	-0.1890305
101	0xbe967baa	-0.29391223
102	0xbf0e86f6	-0.55674684
103	0xbef92de3	-0.4866782
104	0xbeb3a80e	-0.35089153
105	0x3e0a6990	0.13516831
106	0xbe7d8a84	-0.24759871
107	0xbf5ad345	-0.8547862
108	0x3e4c0e45	0.19927318
109	0xbea112c2	-0.31459624
110	0x3edcb2d6	0.4310519
111	0x3e225a8a	0.1585485
112	0xbeda0a41	-0.42585948
113	0xbf5a60f5	-0.85304195
114	0xbeda2842	-0.4260884
115	0xbf7e87ca	-0.9942595
116	0x3eae6d63	0.3406783
117	0xbea5eb75	-0.32406202
118	0x3eb3f2c7	0.35146162
119	0xbe8ea218	-0.27858043
120	0x3f457922	0.7713796
121	0xbf97d754	-1.1862588
122	0x3f3e9758	0.7444968
123	0x3d425651	0.0474456
124	0xbf146f76	-0.57982576
125	0x3e049778	0.12948406
126	0x3e847033	0.2586685
127	0xbef0843a	-0.4697588
128	0x3eb3685e	0.35040563
129	0x3eab706e	0.33484215
130	0xbed54740	-0.41655922
131	0x3e18a533	0.14906769
132	0xbf4301ba	-0.7617451
133	0xbf8e09e7	-1.1096772
134	0xbf76d87b	-0.96424073
135	0x3e057950	0.13034558
136	0xbe987268	-0.29774785
137	0xbfc751d1	-1.5571843
138	0x3e636971	0.22208191
139	0xbf3cc33f	-0.7373542
140	0x3eadcc99	0.33945158
141	0xbd3b568c	-0.045736834
142	0xbe8dafae	-0.27673095
143	0xbf0dea36	-0.554355
144	0xbf8bb3f9	-1.0914298
145	0xbe1b5e40	-0.15172672
146	0xbe5852b6	-0.21125302
147	0xbd0e1294	-0.034685686
148	0xbe96f7ad	-0.29485837
149	0xbe7200bf	-0.23633097
150	0x3d00524b	0.03132848
151	0xbe9673ba	-0.29385167
152	0xbe5c0d54	-0.2148946
153	0x3ebdecaf	0.37094638
154	0x3f33a555	0.7017415
155	0xbe820516	-0.25394505
156	0x3ddc891d	0.1076834
157	0xbe1779d2	-0.14792565
158	0x3e825a1d	0.25459376
159	0xbd885b00	-0.06657982
160	0x3e91fa3f	0.28511235
161	0xbe22a99f	-0.15885018
162	0x3f7878a4	0.97059083
163	0xbbe3b22a	-0.006948729
164	0xbf100f80	-0.5627365
165	0xbdd4d3f4	-0.10391989
166	0xbd928e83	-0.07156088
167	0x3e4a60f0	0.19763541
168	0xbdff8f2b	-0.12478479
169	0xbd4dedd1	-0.050275628
170	0xbed67fda	-0.41894418
171	0xbf018aa1	-0.50602156
172	0x3e20a80b	0.15689103
173	0x3f3e5c59	0.7435966
174	0x3e7dbf7f	0.24780081
175	0xbf2d8104	-0.6777499
176	0xbf42ff9a	-0.7617127
177	0x3e1d853d	0.15382858
178	0x3e3db4ee	0.1852605
179	0x3e0ffbea	0.14060941
180	0x3ee303f2	0.44338948
181	0xbf42f619	-0.76156765
182	0x3e9cf946	0.3065893
183	0xbf185c31	-0.5951567
184	0x3f35a30d	0.7095192
185	0xbe05391a	-0.13010064
186	0x3f1f6f94	0.6227963
187	0x3f598a28	0.84976435
188	0x3f25e0f7	0.64796394
189	0x3f427bac	0.7596996
190	0xbf31aca6	-0.69404066
191	0xbeef3196	-0.4671752
192	0x3f893a6c	1.0720954
193	0xbf8b8faa	-1.0903218
194	0x3ea87e01	0.32908633
195	0x3cd72657	0.026263399
196	0xbf6b5934	-0.9193299
197	0x3e77379d	0.24142309
198	0x3e3840a9	0.17993416
199	0xbd13ffaf	-0.03613251
200	0x3e48249b	0.19545214
201	0xbea3c0e4	-0.319831
202	0x3f554fbf	0.8332481
203	0x3de75207	0.11294942
204	0x3f06d7f8	0.5267329
205	0x3f44e79f	0.76915926
206	0xbf5589c7	-0.83413357
207	0x3d3f6c47	0.04673412
208	0x3ecea907	0.40363333
209	0xbe5ad707	-0.21371089
210	0x3de3253a	0.11091085
211	0x3e6f3037	0.23358236
212	0xbe72c33b	-0.23707287
213	0xbe4b8f44	-0.1987887
214	0xbe71fa9f	-0.2363076
215	0x3e4dacb8	0.20085418
216	0xbdee40f1	-0.1163348
217	0x3c96685c	0.01836031
218	0x3afd200b	0.0019311918
219	0x3ce82489	0.028337734
220	0xbff12c1f	-1.884159
221	0x3e22115f	0.15826939
222	0x3e5e3656	0.21700415
223	0x3e8b87dc	0.2725209
224	0xbe8833c1	-0.26601985
225	0xbeacd818	-0.33758616
226	0x3c989e6b	0.018630227
227	0x3ec5be63	0.38621816
228	0x3ee002a2	0.4375201
229	0xbf89e873	-1.0774063
230	0xbf2593b4	-0.646785
231	0x3f1e0d3a	0.6173893
232	0xbf03c181	-0.5146714
233	0xbecb596f	-0.3971667
234	0x3f280799	0.65636593
235	0x3f905187	1.127488
236	0xbf36e3bc	-0.71441245
237	0xbed917df	-0.42401025
238	0xbe11b0a6	-0.14227542
239	0xbf1802ac	-0.59379077
240	0x3e980dd2	0.29698044
241	0x3e37acad	0.17936964
242	0x3e954b19	0.29158857
243	0xbf3dca54	-0.74136853
244	0x3dce742e	0.10080753
245	0xbe427658	-0.18990457
246	0xbf1843e0	-0.5947857
247	0xbc47d504	-0.012196783
248	0xbf794248	-0.9736676
249	0xbda15c60	-0.07878947
250	0x3d943648	0.07236916
251	0x3d5efc8c	0.054440066
252	0xbe6238d6	-0.22091994
253	0xbf60cf9d	-0.8781679
254	0xbe8ed3db	-0.27896008
255	0x3d1af4ec	0.037831232

fc1.bias f4 [128]
0	0xbdf53ce8	-0.119745076
1	0xbdda2644	-0.1065183
2	0x3ea8c8de	0.3296575
3	0x3e16ffd1	0.14746024
4	0x3e002deb	0.12517516
5	0x3d390552	0.04517109
6	0xbe820536	-0.253946
7	0xbee0470a	-0.43804199
8	0xbed8fb67	-0.42379305
9	0xbe914be3	-0.2837821
10	0xbeccb6d0	-0.39983225
11	0x3dee954c	0.1164957
12	0x3df8da9e	0.12151073
13	0x3e9035d5	0.2816607
14	0xbe523450	-0.20527768
15	0xbde03824	-0.10948208
16	0xbd95d602	-0.073162094
17	0x3f3804ca	0.7188231
18	0xbd076ed5	-0.033064682
19	0x3a41655a	0.0007377468
20	0xbe85b4bb	-0.2611445
21	0xbe79b080	-0.24383736
22	0xbf3436e2	-0.70396245
23	0xbe83ad51	-0.25718167
24	0xbe3a4429	-0.18190064
25	0xbe74c17b	-0.23901932
26	0x3f08dc45	0.53461105
27	0xbbc6a9b2	-0.0060627097
28	0xbea77924	-0.3270961
29	0xbec0de34	-0.37669528
30	0x3e9a914f	0.30188987
31	0xbddc0fe6	-0.1074522
32	0xbdb53e61	-0.088497885
33	0xbe62e140	-0.22156239
34	0x3d44bbee	0.048030786
35	0x3ddd127f	0.107945435
36	0xbf4293bc	-0.76006675
37	0xbcb05748	-0.021525994
38	0x3f330cfb	0.6994168
39	0x3e188dbb	0.14897816
40	0xbcb65795	-0.02225856
41	0x3f0a0821	0.53918654
42	0xbe63c282	-0.22242168
43	0x3eca4de0	0.3951254
44	0x3edf09b0	0.43562078
45	0x3f2a40cc	0.6650512
46	0x3db58f3b	0.0886521
47	0x3d633541	0.05547071
48	0xbec2adcc	-0.38023221
49	0x3ee2285f	0.44171426
50	0x3df56e80	0.11983967
51	0xbe32a6d5	-0.17446454
52	0xbf23670f	-0.6382913
53	0xbee2009d	-0.44141093
54	0xbd862df8	-0.065517366
55	0xbf2b28cc	-0.66859126
56	0xbec221b2	-0.37916332
57	0xbf1a8bed	-0.6036976
58	0xbe962ff8	-0.29333472
59	0xbe595f2b	-0.2122771
60	0x3edd6a82	0.43245322
61	0x3def4727	0.11683493
62	0x3d7e7f05	0.062132854
63	0xbc2aa51b	-0.010415341
64	0xbe72f16c	-0.23724908
65	0xbec7417d	-0.3891715
66	0xbd945220	-0.072422266
67	0x3e0304f8	0.12794864
68	0xbe31b116	-0.17352709
69	0x3e5389cf	0.20658039
70	0xbe5fec1c	-0.21867412
71	0xbcc5b690	-0.024134904
72	0xbf3bc778	-0.7335124
73	0x3ef667f0	0.48126173
74	0xbee104da	-0.43949014
75	0x39d38482	0.00040343782
76	0xbf1f3878	-0.6219554
77	0x3ec303e3	0.38088903
78	0xbee5b1bb	-0.4486216
79	0xbe391020	-0.18072557
80	0xbe56535f	-0.20930241
81	0xbe04d975	-0.12973578
82	0x3ca1bdec	0.019743882
83	0xbb947e4f	-0.0045316587
84	0xbd29c708	-0.041449577
85	0x3c746c30	0.014918372
86	0xbe118a7b	-0.14212982
87	0xbf6f4b52	-0.93474305
88	0xbec0a00c	-0.37622106
89	0x3f21a141	0.6313668
90	0x3c946807	0.01811601
91	0x3dd9e3eb	0.10639175
92	0x3e3e057a	0.18556777
93	0x3db0bb5c	0.08629486
94	0x3cd9e604	0.026598938
95	0xbe01af21	-0.12664463
96	0xbf0a67b2	-0.54064476
97	0xbf00936c	-0.5022495
98	0x3efad393	0.48989543
99	0xbee0843b	-0.43850884
100	0x3da5f45d	0.08103249
101	0xbecdf693	-0.40227184
102	0x3e48f1aa	0.19623438
103	0xbd958870	-0.07301414
104	0x3d32a9d6	0.043619
105	0xbe04e035	-0.12976153
106	0xbe57218e	-0.21008894
107	0x3f57f135	0.8435243
108	0x3d407b63	0.04699267
109	0xbf095c7e	-0.53656757
110	0x3ee8b99b	0.45454106
111	0xbe887de0	-0.26658535
112	0x3e22fe5e	0.15917346
113	0x3ecad5eb	0.3961633
114	0xbdd160aa	-0.10223515
115	0xbeee2cd6	-0.46518582
116	0x3e4a6a59	0.19767131
117	0xbd2972f3	-0.04136939
118	0xbe4e6978	-0.2015742
119	0xbf5da513	-0.8658001
120	0x3ce8aeaa	0.028403599
121	0xbec91738	-0.39275527
122	0x3c17bdce	0.009261562
123	0xbdfde3a4	-0.12396935
124	0x3dec96cf	0.11552202
125	0xbd025cc2	-0.031826742
126	0xbe5bde91	-0.21471621
127	0x3eb7031b	0.35744557

fc2.weight f4 [128, 128]
0	0x3fabbeaf	1.3417567
1	0xbeb38f1b	-0.35070118
2	0xbed642a5	-0.4184772
3	0x3e843e17	0.2582862
4	0x3ea91c52	0.3302942
5	0x3e64ff78	0.22363079
6	0x3f140d36	0.5783266
7	0xbf3b8aac	-0.7325847
8	0xbf040430	-0.5156889
9	0x3e13dd70	0.1443994
10	0xbe905a85	-0.2819406
11	0x3f2105e7	0.6289963
12	0xbf395010	-0.7238779
13	0xbd5ad713	-0.053427767
14	0x3f2ff4c2	0.68732846
15	0xbf9a70f7	-1.2065724
16	0xbf273a1e	-0.65323055
17	0x3e7158ea	0.23569074
18	0x3ea39145	0.3194677
19	0x3e3ae689	0.18252005
20	0xbf0d8791	-0.5528498
21	0xbf2b2e46	-0.6686748
22	0xbf502ddc	-0.81319976
23	0xbf0eb1df	-0.5574016
24	0xbf2fb0b0	-0.6862898
25	0xbefec845	-0.4976217
26	0x3ca821d3	0.020523941
27	0x3f11d756	0.569692
28	0xbef3a4d9	-0.47586706
29	0xbf163eb8	-0.5868945
30	0xbe9603f7	-0.292999
31	0xbd024024	-0.03179945
32	0xbef0befe	-0.47020715
33	0xbf0ac6f5	-0.54209834
34	0xbd79406a	-0.060852446
35	0xbf839bc5	-1.0281912
36	0xbebb1111	-0.36536458
37	0x3f33f3b0	0.7029371
38	0x3b417a7c	0.002952247
39	0x3f2170dd	0.6306284
40	0xbf4eba62	-0.8075315
41	0x3f6e1839	0.9300571
42	0x3e143c37	0.14476095
43	0x3c61c941	0.013780893
44	0xbe1dfe64	-0.15429074
45	0x3f6ebf10	0.9326029
46	0x3e599f83	0.21252255
47	0x3eed3f9c	0.46337593
48	0x3e8cebf3	0.27523765
49	0xbf0ce465	-0.55036
50	0x3f0a2dc4	0.5397608
51	0x3e4aef35	0.19817813
52	0x3f6d00d7	0.92579406
53	0xbead2712	-0.3381887
54	0xbc21d3ed	-0.009877187
55	0xbee2c04e	-0.44287342
56	0x3eb66015	0.3562018
57	0x3e8060b3	0.25073776
58	0xbd3d1282	-0.04616023
59	0xbf9e7295	-1.2378718
60	0xbf36ed62	-0.7145597
61	0x3e88f3f9	0.26748636
62	0xbd710669	-0.058844004
63	0xbe6bf891	-0.2304404
64	0xbee8ab81	-0.45443347
65	0xbd7cb491	-0.06169564
66	0xbf30183c	-0.6878698
67	0x3f0dd3bf	0.55401224
68	0xbf338d39	-0.70137364
69	0x3ded1252	0.1157576
70	0xbceb6d6e	-0.028738704
71	0x3ede2a7f	0.43391797
72	0xbda2ac22	-0.07942988
73	0xbf055170	-0.5207739
74	0xbe890d1b	-0.2676781
75	0xbf43a573	-0.7642433
76	0x3f1c9b1c	0.6117418
77	0xbf4e6eab	-0.80637616
78	0xbd3305dd	-0.043706764
79	0xbf1ec052	-0.6201221
80	0xbedce44b	-0.43142924
81	0x3f1c2448	0.6099286
82	0xbf267296	-0.65018594
83	0x3e053a5a	0.1301054
84	0xbe86e7b6	-0.26348656
85	0x3e8c9f04	0.2746507
86	0xbe90ec8b	-0.28305468
87	0xbee452f0	-0.44594526
88	0xbf447d04	-0.7675326
89	0xbf48f872	-0.785041
90	0x3fd5fa74	1.6717057
91	0x3d7a53b9	0.061115
92	0xbe6a3c6c	-0.22874612
93	0xbddd9352	-0.10819115
94	0x3e0bd3ee	0.13655064
95	0xbee9f435	-0.45694128
96	0xbdb6b0fa	-0.08920474
97	0x3f3dc3c9	0.7412687
98	0xbd3b55cf	-0.04573613
99	0xbf51af97	-0.81908554
100	0xbc9c82ad	-0.01910528
101	0xbfa6f10f	-1.3042315
102	0xbd8b91e5	-0.068149365
103	0x3e2928c8	0.16519463
104	0x3e2ffde4	0.17186695
105	0xbe12fea0	-0.14354944
106	0x3e9a4b92	0.3013578
107	0xbe1657e3	-0.14681964
108	0x3f731647	0.9495587
109	0xbf977d82	-1.1835177
110	0x3ddd0888	0.10792643
111	0xbdd6d9ae	-0.10490738
112	0x3ea5e89f	0.32404038
113	0x3e322e82	0.17400554
114	0xbf82846f	-1.0196666
115	0x3e97f721	0.29680732
116	0x3f8434da	1.0328629
117	0xbe5d32fd	-0.21601482
118	0x3e676055	0.22595342
119	0x3da0dced	0.07854638
120	0x3f3561a6	0.70852125
121	0xbeb0ef6a	-0.34557658
122	0x3f4d3690	0.8016138
123	0x3e87bae9	0.2650979
124	0x3d317b0c	0.043330237
125	0xbea3230e	-0.31862682
126	0xbe58773b	-0.21139233
127	0x3ebae1f3	0.3650051
128	0xbf248567	-0.64266056
129	0xbddae015	-0.106872715
130	0x3f0c90c3	0.5490839
131	0x3e51cb16	0.20487627
132	0x3e2adbae	0.16685364
133	0x3f520bdf	0.82049364
134	0xbe379cc8	-0.17930901
135	0xbe9afcdd	-0.30271044
136	0xbee68b8d	-0.45028344
137	0x3d8a1d80	0.06743908
138	0xbef3bea5	-0.47606388
139	0x3ecdccec	0.40195405
140	0x3e9a9051	0.3018823
141	0xbeda81f9	-0.42677286
142	0xbe92168c	-0.28532827
143	0x3c9c2cbc	0.0190643
144	0x3f0860e4	0.53272843
145	0xbf95854f	-1.1681308
146	0xbe8fd015	-0.28088441
147	0x3ec9a474	0.3938328
148	0x3e8b0d25	0.27158466
149	0xbfa3edcc	-1.2806945
150	0x3e0d8bc7	0.13822852
151	0x3ee42f3d	0.4456729
152	0xbe2e4350	-0.17017865
153	0x3f404942	0.7511178
154	0x3dd0b219	0.101902194
155	0x3fc6c790	1.5529652
156	0xbd565d4b	-0.052335065
157	0xbf4ead37	-0.80733055
158	0x3ec4dcc7	0.3844969
159	0x3ea0648a	0.31326705
160	0xbea0f6d7	-0.31438324
161	0x3d1a38b0	0.037651718
162	0x3e81d404	0.25357068
163	0xbf61db02	-0.88224804
164	0xbf4f641e	-0.8101214
165	0xbe5eabbc	-0.21745199
166	0xbfb5bc66	-1.419812
167	0x3e308b02	0.17240527
168	0x3edf7186	0.436413
169	0xbf51c49a	-0.81940615
170	0xbf03b6fe	-0.514511
171	0xbe9e169d	-0.30876628
172	0xbead7057	-0.3387477
173	0xbf16fb66	-0.58977354
174	0x3deb1d72	0.114802256
175	0xbf0fd19a	-0.561792
176	0x3e5b3505	0.21406944
177	0x3f2dc1ce	0.6787385
178	0xbe38d86e	-0.18051311
179	0x3dc9a939	0.0984673
180	0x3f948688	1.1603556
181	0xbd42bed7	-0.04754528
182	0x3ef85f46	0.48510188
183	0xbe971c1f	-0.29513642
184	0x3d131f48	0.035918504
185	0x3e34a315	0.17640336
186	0x3e563c96	0.20921549
187	0xbfc82a1b	-1.563785
188	0xbf0e0e7a	-0.5549084
189	0x3f9b8b30	1.2151852
190	0x3d39ebc9	0.045390878
191	0x3e83e514	0.2576071
192	0xbbf58757	-0.0074929404
193	0xbf6857b7	-0.9075884
194	0x3ef90c67	0.48642275
195	0xbf91d4b5	-1.1393038
196	0xbdca7657	-0.09885853
197	0xbe8122cf	-0.2522187
198	0x3e587c55	0.21141179
199	0x3d5fe296	0.05465945
200	0x3ed9da08	0.42549157
201	0xbde7ce97	-0.11318701
202	0xbf2233f9	-0.63360554
203	0x3dcdf768	0.100569546
204	0x3f6d8ce4	0.9279311
205	0xbf82995e	-1.0203054
206	0xbd90d85b	-0.070725165
207	0x3eb739be	0.3578624
208	0xbf399ceb	-0.7250506
209	0x3f5c2d5c	0.8600671
210	0x3d141b6c	0.036158964
211	0x3e8c673d	0.27422515
212	0x3f12f03e	0.5739783
213	0x3f15125a	0.5823113
214	0xbe559939	-0.20859231
215	0xbe778d2e	-0.2417495
216	0x3d70b0c9	0.058762345
217	0x3f2034cf	0.6258058
218	0x3d670548	0.05640152
219	0xbe8ef036	-0.2791764
220	0x3e074daf	0.13213228
221	0xbee9061d	-0.45512477
222	0x3de5205a	0.11187811
223	0x3df2b8ab	0.11851629
224	0x3eacc464	0.33743584
225	0x3f1e1203	0.61746234
226	0xbe3164b1	-0.17323567
227	0xbefd8bea	-0.49520808
228	0x3e25c7fc	0.16189569
229	0xbf2d76a8	-0.6775918
230	0x3ef3947d	0.47574225
231	0x3d9d5831	0.07682837
232	0xbf1ff840	-0.62488174
233	0xbea993a2	-0.33120447
234	0xbdaf1c88	-0.08550364
235	0x3ebe455b	0.3716229
236	0xbea2a9bb	-0.3177012
237	0xbf4b308e	-0.79370964
238	0x3f10c912	0.5655681
239	0x3f4d8f9e	0.8029727
240	0xbe9a9e2a	-0.30198795
241	0xbd0a1ce9	-0.033718977
242	0x3e4b4315	0.19849809
243	0xbf497e58	-0.7870841
244	0xbe62f64f	-0.22164272
245	0x3f2d646a	0.67731345
246	0x3f3fa7a7	0.7486519
247	0x3f11d2c8	0.5696225
248	0x3e7a45d1	0.24440695
249	0xbe689ff8	-0.22717273
250	0x3f8de794	1.1086297
251	0xbb538d75	-0.003228036
252	0x3e36c810	0.17849755
253	0xbecc4d9b	-0.39902958
254	0x3da5f2d4	0.081029564
255	0x3ee064fd	0.43827048

fc2.bias f4 [128]
0	0xbc247679	-0.010038012
1	0x3dd510c2	0.10403587
2	0x3e05b22e	0.13056251
3	0x3e7be062	0.24597314
4	0xbe92bf7a	-0.2866171
5	0x3f024fb8	0.5090289
6	0xbcef8214	-0.02923683
7	0xbe4bccba	-0.19902316
8	0xbef4fc01	-0.47848514
9	0x3e904b25	0.2818233
10	0xbe214c6e	-0.15751812
11	0xbe06e2ca	-0.1317245
12	0x3eaa99f4	0.33320582
13	0x3eb32af0	0.34993696
14	0xbe0ca0cb	-0.13733213
15	0x3e8b4c15	0.27206483
16	0xbeafa9d2	-0.3430925
17	0x3ef804da	0.484412
18	0xbece36ab	-0.40276083
19	0xbe2f87d3	-0.17141657
20	0x3f07327f	0.52811426
21	0x3dd92910	0.10603535
22	0x3ee23c41	0.44186595
23	0x3f215913	0.6302654
24	0x3ea491e7	0.32142565
25	0x3d07d119	0.033158395
26	0xbea5605a	-0.32300073
27	0x3e8ab46d	0.2709078
28	0x3e68e50c	0.22743624
29	0xbe901ce7	-0.2814705
30	0xbd1f8e69	-0.038954172
31	0x3e5a0d4e	0.21294138
32	0xbe07e230	-0.13269877
33	0x3f177f7c	0.591789
34	0xbcbda88b	-0.023151657
35	0x3bad5a63	0.005290316
36	0x3e38926c	0.18024606
37	0x3f054922	0.52064717
38	0xbd808216	-0.06274812
39	0xbeba9931	-0.36445
40	0x3ef635fb	0.4808806
41	0xbec048b9	-0.37555483
42	0x3d4e5669	0.050375376
43	0xbea4feb3	-0.3222557
44	0x3db1b5bf	0.086772434
45	0x3e846445	0.2585775
46	0x3ea625bf	0.32450673
47	0xbd82ac15	-0.06380478
48	0xbc1f46a1	-0.009721429
49	0x3e04cdb3	0.12969093
50	0xbe1ed08d	-0.15509243
51	0xbd90c614	-0.070690304
52	0x3e51652b	0.20448749
53	0x3dcf3bc1	0.10118819
54	0xbe27535e	-0.16340396
55	0xbddfc71d	-0.1092665
56	0xbe4a018a	-0.1972715
57	0x3e61fca6	0.22069034
58	0x3ddc326d	0.107518055
59	0x3bd5764a	0.0065143453
60	0xbe13b179	-0.14423169
61	0xbe8badbb	-0.27280983
62	0x3e7e185f	0.24813984
63	0x3ef86c35	0.48520055
64	0xbdaecae3	-0.08534791
65	0xbdeb9de7	-0.11504727
66	0xbde36ed8	-0.11105126
67	0x3e484a01	0.1955948
68	0xbdf14d7e	-0.117823586
69	0x3f11a799	0.5689636
70	0x3eb1a7af	0.34698245
71	0xbd822cda	-0.06356211
72	0xbcb43d37	-0.022001846
73	0xbe36974c	-0.17831153
74	0xbd9a4113	-0.07531943
75	0x3cf13e2e	0.029448595
76	0xbdafe3ae	-0.08588348
77	0x3e9c40ac	0.3051809
78	0xbd36bcdb	-0.0446137
79	0x3d81f553	0.0634562
80	0xbd61843e	-0.055057757
81	0xbdc314da	-0.095254615
82	0xbd0ab244	-0.033861414
83	0x3eea870b	0.45806155
84	0x3e47e319	0.19520225
85	0x3ea40d8c	0.32041585
86	0xbd1d34a0	-0.038380265
87	0xbe14c86b	-0.14529578
88	0x3eb8bd2c	0.36081827
89	0xbe9b0e66	-0.30284423
90	0xbea28f0d	-0.31749764
91	0x3c3125a8	0.010812201
92	0xbbad4fce	-0.0052890545
93	0x3ef0ea3b	0.47053704
94	0xbbf63f66	-0.007514882
95	0xbeb08a46	-0.34480494
96	0xbe51cb10	-0.20487618
97	0xbd5bbae3	-0.053645026
98	0xbe145eb2	-0.14489248
99	0xbd27b5c7	-0.04094484
100	0x3e05bdde	0.1306071
101	0xbd022d3b	-0.031781416
102	0x3b33c9b5	0.002743346
103	0xbea5521a	-0.322892
104	0xbd36ed7b	-0.044660073
105	0x3e4e1071	0.2012346
106	0xbd909840	-0.070602894
107	0xbe6e8e87	-0.23296557
108	0xbd28fc6f	-0.041256364
109	0xbdae83ac	-0.08521208
110	0x3ee6694a	0.45002204
111	0x3f0814c5	0.5315669
112	0x3f04ad3a	0.5182682
113	0xbc783bd9	-0.015150988
114	0xbe1268f8	-0.14297855
115	0x3e9d9fcb	0.30785975
116	0x3f14cbea	0.5812365
117	0x3ea9e724	0.3318416
118	0x3cac7344	0.021051057
119	0x3c411bd8	0.011786424
120	0xbb9c438b	-0.004768794
121	0x3e9e5c7a	0.3092993
122	0x3e293933	0.16525726
123	0xbd74cb28	-0.059764057
124	0x3eadbcff	0.33933255
125	0x3e22138a	0.15827766
126	0xbdbfc01d	-0.093628146
127	0xbbd786bb	-0.0065773404

fc3.weight f4 [64, 128]
0	0xbf415136	-0.75514543
1	0x3f0665ec	0.5249927
2	0xbe82a2f4	-0.25514948
3	0x3e1e1f16	0.15441546
4	0xbf8ac4b0	-1.0841274
5	0x3dfe1d4e	0.12407933
6	0x3d30a6d1	0.04312784
7	0x3f059022	0.52173054
8	0xbf640482	-0.8906938
9	0xbfa4d21b	-1.2876619
10	0xbe8f32d6	-0.27968472
11	0xbd623d30	-0.055234134
12	0x3e62e445	0.2215739
13	0x3da7d22a	0.081943825
14	0xbba90c40	-0.005158931
15	0x3ddeec4c	0.10884914
16	0xbf812d69	-1.0091983
17	0x3ee9e2ea	0.45680934
18	0xbec17dc5	-0.37791267
19	0x3ebe31fe	0.37147516
20	0x3e962d1a	0.29331285
21	0xbd851bff	-0.064994805
22	0x3e95920f	0.29212996
23	0x3db0c5b7	0.08631461
24	0x3df22495	0.11823384
25	0xbd887b03	-0.066640876
26	0xbf9f00ee	-1.2422159
27	0xbdb460b7	-0.088075094
28	0x3e9353be	0.28774828
29	0xbe09ae19	-0.13445319
30	0xbedc0ae3	-0.42977056
31	0xbc8bebdc	-0.01708024
32	0xbd4873a7	-0.04893842
33	0x3e8c1883	0.2736245
34	0x3f3eb32b	0.7449214
35	0x3e92f109	0.2869952
36	0xbdcae493	-0.09906878
37	0x3e4cabbd	0.19987388
38	0xbcbf9870	-0.023388118
39	0xbf91f264	-1.1402097
40	0x3daababf	0.083364
41	0xbddc1122	-0.10745455
42	0x3d9eb788	0.077498496
43	0x3f989392	1.1920035
44	0x3e9cc582	0.30619437
45	0x3e829ffc	0.25512683
46	0x3e979658	0.2960689
47	0xbc887375	-0.016656617
48	0x3eec9942	0.46210676
49	0x3dc0dc64	0.09417036
50	0xbf5590a7	-0.83423847
51	0xbc5d4e6e	-0.013507469
52	0x3d853eeb	0.06506141
53	0x3f38d75b	0.72203606
54	0x3e169891	0.14706637
55	0x3ef12e7d	0.4710578
56	0x3e2736ac	0.1632945
57	0x3e60b2b2	0.21943167
58	0x3e52921f	0.20563553
59	0x3f78a5db	0.97128075
60	0x3efeb42c	0.49746835
61	0xbdc8007a	-0.09765716
62	0x3e9fac3c	0.31186092
63	0x3e246516	0.16054186
64	0x3f2377ae	0.6385449
65	0x3a8867c8	0.0010406906
66	0x3d992102	0.07476999
67	0xbd4d2847	-0.05008724
68	0xbdda929f	-0.10672497
69	0x3eeb1e90	0.45921755
70	0x3e99d7c6	0.30047435
71	0x3cb658c5	0.022259125
72	0x3f3a95a5	0.7288459
73	0x3e8a7365	0.27041164
74	0x3d700dc6	0.058606885
75	0x3eb8cc5f	0.36093423
76	0x3d1e920b	0.038713496
77	0x3c8a0b01	0.01685095
78	0xbc15cbb2	-0.009142803
79	0x3ec65609	0.38737515
80	0x3f3d9c7d	0.7406691
81	0x3e0d0a08	0.13773358
82	0x3e491ed0	0.1964066
83	0x3ddd64e0	0.10810256
84	0xbf9c925c	-1.2232165
85	0x3e699b74	0.22813207
86	0x3eea4b4d	0.45760575
87	0x3f5e5077	0.8684153
88	0x3d9b03ba	0.0756907
89	0xbfab5f39	-1.3388435
90	0x3f8f56f2	1.1198409
91	0xbc2868c3	-0.010278883
92	0x3d29a4d5	0.04141696
93	0x3eb2aede	0.34899038
94	0x3d82a145	0.06378416
95	0xbec73d9f	-0.389142
96	0x3eb6c74a	0.3569892
97	0x3dc5ff6b	0.09667858
98	0x3ed87e59	0.42283896
99	0xbecc6037	-0.39917156
100	0x3e88a8ab	0.26691183
101	0xbd20387a	-0.03911636
102	0x3ebaa542	0.36454207
103	0x3f7fe9dc	0.99966216
104	0xbf277fec	-0.6542957
105	0x3b8238d0	0.0039740577
106	0x3a93f1f2	0.0011287315
107	0x3e6654e2	0.22493318
108	0x3d7fcd91	0.062451903
109	0x3ee266f1	0.44219163
110	0x3e2d4db4	0.16924173
111	0x3e3eccc4	0.186328
112	0x3e2a5567	0.16634141
113	0xbf260e79	-0.64865834
114	0x3f18e408	0.5972295
115	0xbde06f46	-0.10958724
116	0x3e4d6991	0.20059802
117	0x3d25f4ae	0.040516548
118	0xbf0d10f8	-0.5510402
119	0xba17004d	-0.00057602377
120	0xbe829d8c	-0.25510824
121	0x3eafad8d	0.34312096
122	0x3f186900	0.5953522
123	0xbbea6c2e	-0.0071540093
124	0x3e799efa	0.24377051
125	0x3ec1f8eb	0.37885222
126	0x3d8bdb5e	0.0682895
127	0x3d323f9a	0.043517686
128	0xbf46eccb	-0.7770507
129	0x3f29620a	0.6616522
130	0xbed69972	-0.41913944
131	0x3e5034aa	0.2033259
132	0xbfa59f8d	-1.2939316
133	0x3e6bec3c	0.23039335
134	0xbcce28d8	-0.02516596
135	0x3f31d19e	0.69460475
136	0xbf7c47ce	-0.98547065
137	0xbfaeffad	-1.3671776
138	0xbe461aae	-0.19346115
139	0xbb0c749e	-0.0021431814
140	0x3ec96bf1	0.39340165
141	0x3e1f3af0	0.15549827
142	0xbe20b327	-0.15693341
143	0x3d3ddab5	0.046351153
144	0xbf7cf793	-0.9881527
145	0x3f05411f	0.5205249
146	0xbe617f77	-0.2202128
147	0x3f05a7f6	0.52209413
148	0x3e67d8ef	0.22641347
149	0x3e85290f	0.26007888
150	0x3f17a307	0.59233135
151	0x3e26d2e1	0.16291381
152	0x3e1df19a	0.15424195
153	0x3cd2b0b7	0.02571903
154	0xbf937992	-1.1521475
155	0x3dd33a95	0.10313908
156	0x3eab9e5a	0.3351925
157	0xbe6cd5aa	-0.23128381
158	0xbe9a535a	-0.30141717
159	0x3c19804c	0.009368967
160	0xbd8d0d8f	-0.06887352
161	0x3f035b86	0.5131153
162	0x3f58f7da	0.8475319
163	0x3eddc656	0.4331538
164	0xbce3e239	-0.027817832
165	0x3e6ccdde	0.23125407
166	0x3cceb01d	0.025230462
167	0xbf525d4e	-0.8217362
168	0x3d77313a	0.06034968
169	0xbea80dea	-0.32823116
170	0x3c408615	0.011750718
171	0x3fcf1e98	1.6181211
172	0x3eba9dc3	0.36448488
173	0x3df81e1b	0.12115117
174	0x3e661177	0.224676
175	0xbd966f78	-0.0734548
176	0x3eda62ff	0.42653653
177	0x3cc93b77	0.024564488
178	0xbf5197d9	-0.81872326
179	0x3ca13a75	0.019681195
180	0x3e58201f	0.21106003
181	0x3f4662ab	0.77494305
182	0x3eb03d21	0.34421638
183	0x3f2f5918	0.6849532
184	0x3e70a1de	0.23499247
185	0x3eb8f8a8	0.3612721
186	0x3e9d2d7e	0.3069877
187	0x3f819597	1.0123776
188	0x3f3e69ae	0.74380004
189	0xbe0d6bd9	-0.13810672
190	0x3e49e849	0.19717516
191	0x3dfa2dfe	0.122158036
192	0x3f568e1a	0.8381058
193	0x3c9b3e7a	0.01895069
194	0x3d89c604	0.067272216
195	0x3d055f04	0.032561317
196	0x3d02bcd6	0.03191837
197	0x3f322b1b	0.69597024
198	0x3e7bc1f8	0.24585712
199	0xbda29aa1	-0.079396494
200	0x3f934b74	1.1507401
201	0x3ee32130	0.44361258
202	0x3dde1a89	0.10844905
203	0x3f2939b9	0.661037
204	0xbdc6b2b8	-0.09702057
205	0x3e19510d	0.14972325
206	0x3d4d2bfb	0.05009077
207	0x3e76b36a	0.24091879
208	0x3f3c8ff0	0.7365713
209	0x3e60775f	0.21920536
210	0x3e9f5720	0.3112116
211	0x3dfb2186	0.122622535
212	0xbfa509d0	-1.289362
213	0x3eb22d37	0.3480012
214	0x3f11c848	0.5694623
215	0x3f935147	1.1509179
216	0x3d9abb52	0.0755526
217	0xbfa46efb	-1.2846369
218	0x3fb0e61a	1.3820221
219	0x3c11587a	0.008871192
220	0xbd6e3ffd	-0.058166493
221	0x3f0f9ebf	0.561016
222	0x3d8d7cf5	0.06908599
223	0xbebf67d4	-0.37383902
224	0x3eb8c017	0.36084053
225	0xbd226ca6	-0.039654396
226	0x3eb92f3c	0.3616885
227	0xbec82dee	-0.39097542
228	0x3e14386c	0.14474648
229	0x3c3ca476	0.01151382
230	0x3ec4aec2	0.3841458
231	0x3f742578	0.9536967
232	0xbf3599e4	-0.70937943
233	0x3dd8db78	0.10588735
234	0x3cd1046b	0.025514802
235	0x3e88c5df	0.26713464
236	0xbc84fcfb	-0.016233912
237	0x3efd4111	0.49463704
238	0x3ec444f9	0.38333872
239	0x3dcf45b7	0.10120719
240	0x3e196257	0.1497892
241	0xbf057f62	-0.52147496
242	0x3f48a755	0.7838033
243	0xbec2ed70	-0.38071775
244	0x3e79afef	0.2438352
245	0x3d8e9233	0.06961479
246	0xbf13e5f9	-0.57772785
247	0x3c8c34d4	0.017115034
248	0xbe8f6014	-0.2800299
249	0x3efaba39	0.48970202
250	0x3f452720	0.77012825
251	0x3d9bb826	0.07603483
252	0x3de21771	0.11039627
253	0x3eedf608	0.4647677
254	0xbc2efe53	-0.010680753
255	0x3da949b7	0.08266013

fc3.bias f4 [64]
0	0x3f29ee72	0.66379464
1	0x3f083e0e	0.5321969
2	0x3ea30017	0.31836006
3	0x3ecaa770	0.3958087
4	0xbcbc6b13	-0.023000276
5	0xbd213907	-0.039361026
6	0x3ede2c3c	0.43393123
7	0x3ec7a83c	0.3899554
8	0x3e9b90d4	0.30383933
9	0x3f13d9af	0.57754034
10	0xbc858945	-0.016300807
11	0x3d27647e	0.04086732
12	0xbeabdda8	-0.33567548
13	0xbdcbf5e5	-0.0995901
14	0xbc98f7ac	-0.018672787
15	0x3f309e6a	0.6899172
16	0x3f2d3342	0.6765634
17	0xbde8e166	-0.11371116
18	0x3e8326e4	0.2561561
19	0x3eb57f7d	0.35448828
20	0x3ef9f8cd	0.48822632
21	0x3ea4b732	0.32171017
22	0x3ecbb433	0.3978592
23	0x3f0db0fe	0.55348194
24	0x3e87fd1e	0.265603
25	0x3ecc9add	0.399619
26	0x3f2ad8eb	0.6673724
27	0x3f3d156c	0.7386081
28	0x3c919c32	0.017774675
29	0x3ef6dc4d	0.4821495
30	0x3eaa93ad	0.33315793
31	0x3e00da60	0.12583303
32	0x3f278883	0.65442675
33	0xbdcae99e	-0.0990784
34	0x3ec72566	0.3889572
35	0x3f416083	0.7553789
36	0xbde5bbc1	-0.11217452
37	0x3f574bd4	0.8410008
38	0xbedf9498	-0.43668056
39	0x3e325243	0.17414193
40	0xbd89e8fc	-0.06733891
41	0xbcd5f058	-0.026115581
42	0x3e9d10b1	0.30676797
43	0x3f280e22	0.65646565
44	0x3bdc8c8f	0.006730623
45	0x3f1fe4ef	0.624587
46	0xbd9f1dd2	-0.0776936
47	0x3e593025	0.21209772
48	0x3ed2b52d	0.4115385
49	0x3ef89028	0.48547482
50	0x3f0bb095	0.5456632
51	0x3f04c5ef	0.5186452
52	0x3e703011	0.23455836
53	0x3c9a2f40	0.018821359
54	0x3ce18ba9	0.027532415
55	0x3e1c9e88	0.1529485
56	0x3f64448e	0.89167106
57	0x3c9c7930	0.019100755
58	0x3e6eb71b	0.23312037
59	0x3f4253c4	0.75909066
60	0x3d7c5202	0.061601646
61	0x3eb439ae	0.35200256
62	0xbccbb59b	-0.02486687
63	0x3f8395e5	1.0280119

fc4.weight f4 [4, 64]
0	0x3e985d18	0.29758525
1	0x3ea54bcc	0.3228439
2	0x3f2b4b2b	0.6691157
3	0x3e9ada8e	0.3024487
4	0x3db26b4d	0.08711872
5	0xbdbdde91	-0.09270967
6	0xbf10e5f9	-0.5660091
7	0x3eba2a8d	0.3636059
8	0x3e9dcbe6	0.30819625
9	0x3ea0be34	0.31395113
10	0x3d045777	0.032309975
11	0x3dc356ac	0.09538016
12	0x3da29270	0.07938087
13	0x3c36cf9f	0.011157899
14	0xbe0fb117	-0.14032398
15	0x3e7ac8e4	0.24490696
16	0x3ea0a96e	0.31379265
17	0xbd9e101f	-0.077179186
18	0xbeb03399	-0.34414366
19	0x3e7302d4	0.23731548
20	0x3e9c6906	0.30548877
21	0x3e4c68c6	0.19961843
22	0xbe9f5f0e	-0.31127208
23	0x3e490060	0.1962905
24	0x3e992c2e	0.2991652
25	0x3e02490e	0.1272318
26	0x3e8a7854	0.27044928
27	0x3e1ab214	0.15106994
28	0x3ea4a42b	0.321565
29	0x3e7072c7	0.23481284
30	0x3e245100	0.16046524
31	0x3f53ac38	0.8268466
32	0x3ea4259a	0.32059938
33	0x3decce48	0.115627825
34	0xbf2397d8	-0.6390357
35	0x3e3dad84	0.18523222
36	0xbdd3b842	-0.10337879
37	0x3dff5cec	0.12468895
38	0x3e1047a2	0.14089826
39	0xbe73de6d	-0.23815317
40	0xbdeef669	-0.11668093
41	0x3e053b0a	0.13010803
42	0xbeaa1857	-0.33221695
43	0x3e83c9c1	0.25739864
44	0x3db49eb3	0.08819332
45	0x3ee1d38d	0.44106713
46	0x3d9a3a7f	0.075306885
47	0xbed44433	-0.41458282
48	0xbebc3da9	-0.36765793
49	0x3e884947	0.26618406
50	0x3e369148	0.17828858
51	0xbe3f7bf5	-0.1869963
52	0xbe7405e6	-0.23830375
53	0xbd54f832	-0.05199451
54	0x3bcdf24d	0.006284988
55	0x3c766591	0.015038864
56	0x3e4cbf2a	0.19994798
57	0x3cb91029	0.022590714
58	0xbed508a5	-0.41608158
59	0x3e56fabc	0.20994085
60	0x3edda1b7	0.4328744
61	0xbef27d38	-0.4736116
62	0x3d75ec11	0.060039584
63	0xbe72c402	-0.23707584
64	0x3e5fde6e	0.21862194
65	0x3e8d1c20	0.2756052
66	0x3f0beadd	0.5465525
67	0x3ec54d1f	0.385354
68	0xbd93c20a	-0.072147444
69	0xbd0de2de	-0.034640186
70	0xbea4f939	-0.32221392
71	0x3e9b4080	0.30322647
72	0x3e4f68db	0.20254843
73	0x3ea30aea	0.31844264
74	0xbd62924b	-0.055315297
75	0x3bd89a41	0.0066101854
76	0x3eb361c1	0.35035518
77	0x3c167ece	0.009185506
78	0xbdfc309f	-0.12313961
79	0x3e706d5b	0.23479216
80	0x3e71812d	0.23584433
81	0x3d5a76fa	0.05333612
82	0xbef7ee85	-0.48424163
83	0x3c641026	0.013919866
84	0x3eb5a35c	0.35476196
85	0x3ee91eb4	0.45531237
86	0xbee2bde0	-0.44285488
87	0x3e814b25	0.25252643
88	0x3eb7e9a2	0.35920435
89	0x3e91bce1	0.28464416
90	0x3e41bf15	0.18920548
91	0x3e518c63	0.2046371
92	0xbe46b3c5	-0.19404514
93	0x3eb095ba	0.34489232
94	0x3e9df010	0.30847216
95	0x3f2e9ad0	0.68204975
96	0x3e704e3b	0.23467343
97	0xbaffa08c	-0.0019502803
98	0xbea16b70	-0.3152728
99	0x3e06483a	0.1311349
100	0x3d33a7df	0.043861266
101	0x3e0e1e92	0.13878849
102	0xbe296b78	-0.16544902
103	0xbeb6bff1	-0.35693315
104	0xbaf71418	-0.0018850593
105	0xbd80be89	-0.06286342
106	0xbef4ee19	-0.47837904
107	0x3e83b7c3	0.25726137
108	0x3c15fdaa	0.0091547165
109	0x3eb697a1	0.3566256
110	0x3be55c19	0.0069995043
111	0xbec5400d	-0.3852543
112	0xbec87f4e	-0.39159626
113	0x3e99aba7	0.30013773
114	0x3d3ed0b1	0.046585742
115	0xbe93ae38	-0.28843856
116	0xbed6eafe	-0.4197616
117	0xbdd112e9	-0.10208685
118	0xbd99826a	-0.07495578
119	0xbe4555af	-0.19270967
120	0x3c967010	0.018363982
121	0x3d58bc5f	0.05291402
122	0x3c38f3d9	0.011288607
123	0x3de3e89b	0.1112835
124	0x3f12fe58	0.5741935
125	0xbecafaa4	-0.3964435
126	0x3de26bc7	0.11055713
127	0xbf0fe012	-0.5620128
128	0x3e56ace0	0.20964384
129	0x3ea053e3	0.31314
130	0x3f1d5c5a	0.6146904
131	0x3e92fd90	0.28709078
132	0xbc6c2f9f	-0.014415651
133	0xbbc89906	-0.0061217574
134	0xbea77f03	-0.3271409
135	0x3df0c83f	0.11756944
136	0xbe08cabe	-0.1335859
137	0x3e89737f	0.2684593
138	0xbd77cc32	-0.06049747
139	0xbdf90b94	-0.121604115
140	0xbeb64522	-0.3559962
141	0x3cc36fa1	0.02385694
142	0xbd7f2fed	-0.062301565
143	0x3e7e3f87	0.24828921
144	0x3e75cfa7	0.24004994
145	0x3cde7671	0.027156087
146	0xbf05922a	-0.52176154
147	0xbe4c4f70	-0.19952178
148	0x3e93fc00	0.28903198
149	0x3e64a96e	0.22330257
150	0xbe2a511c	-0.16632503
151	0x3e5392ff	0.20661543
152	0x3e4ba130	0.19885707
153	0x3e2398b0	0.15976214
154	0x3e82ef24	0.25573075
155	0x3eb98b1c	0.36238945
156	0x3e624462	0.22096398
157	0x3e7e8794	0.24856406
158	0x3e0b9ee7	0.13634835
159	0xbe887e15	-0.26658693
160	0x3e5182af	0.20460008
161	0xbd266c8e	-0.04063087
162	0xbeaaf1b0	-0.33387518
163	0x3e686c34	0.22697526
164	0xbda5f3bd	-0.0810313
165	0x3f08062e	0.5313443
166	0x3da602bf	0.081059925
167	0xbed1741f	-0.40908906
168	0xbd97ad11	-0.07406057
169	0xbbeb786c	-0.0071859863
170	0xbf08afd4	-0.5339329
171	0x3e8de546	0.27713984
172	0xbd15acef	-0.036541875
173	0x3e879143	0.26478013
174	0xbbbb42d9	-0.005714756
175	0xbedd8927	-0.432687
176	0xbeeaafcb	-0.45837244
177	0x3e28297d	0.16422077
178	0x3ea1211e	0.3147058
179	0xbe1d9a4a	-0.15390888
180	0xbf0454bd	-0.516918
181	0xbd03b043	-0.03215052
182	0xbd379005	-0.044815082
183	0x3d2a9ffe	0.041656487
184	0x3efbf8ce	0.4921326
185	0xbd82811a	-0.063722804
186	0xbed6700a	-0.41882354
187	0x3ea46b27	0.32113
188	0x3f14e52d	0.58162194
189	0xbee0a822	-0.43878275
190	0xbd55fd77	-0.052243676
191	0x3e9857c7	0.2975447
192	0x3e3a4a38	0.18192375
193	0x3e68679e	0.22695777
194	0x3f1f3efc	0.6220548
195	0x3dd68e85	0.10476402
196	0xbdd7d742	-0.10539104
197	0x3c317111	0.01083018
198	0xbebc6689	-0.36796978
199	0x3ed41d2b	0.41428503
200	0x3e9bf5e7	0.30461046
201	0x3e5a527a	0.21320525
202	0x3d7a460e	0.061101966
203	0xbca1f1a0	-0.019768536
204	0xbd306510	-0.04306513
205	0xbda832f7	-0.08212846
206	0xbcd6a685	-0.02620245
207	0x3e7fdd72	0.24986818
208	0x3e975f4c	0.29564893
209	0xbc57dbd3	-0.013174969
210	0xbe5da192	-0.21643665
211	0x3edf8076	0.43652695
212	0x3de2a48a	0.110665396
213	0x3e2cd6d3	0.16878824
214	0xbeaef42a	-0.34170657
215	0x3e86fed0	0.26366282
216	0x3e2af638	0.16695487
217	0x3e67129f	0.22565697
218	0x3e98d7bd	0.29852095
219	0x3eb04d7e	0.34434122
220	0x3ebb7c07	0.36618063
221	0x3e638380	0.22218132
222	0x3cb576dd	0.022151405
223	0x3f1a89c3	0.6036646
224	0x3e8cc097	0.27490684
225	0x3d8194c4	0.06327203
226	0xbef51bef	-0.47872874
227	0x3ea1d5d2	0.31608444
228	0xbd4b95ad	-0.04970329
229	0x3e9f93ad	0.31167355
230	0x3da6c222	0.08142497
231	0xbe593143	-0.21210198
232	0xbd1e8457	-0.038700428
233	0xbd89e44a	-0.06732996
234	0xbecab105	-0.3958818
235	0x3e26752d	0.16255637
236	0x3d68ece9	0.05686656
237	0x3f0905f2	0.53524697
238	0x3d32ac50	0.04362136
239	0xbedd7649	-0.43254307
240	0xbef4f4ee	-0.47843117
241	0x3ebf31af	0.37342593
242	0x3df624b5	0.1201872
243	0xbe13f1c7	-0.144477
244	0xbe210139	-0.15723123
245	0x3d933be7	0.0718916
246	0x3a1a3c86	0.00058836525
247	0xbede23c3	-0.4338666
248	0x3e1384cd	0.14406128
249	0x3d97dcd1	0.07415164
250	0xbf043b3c	-0.51652884
251	0x3e923d96	0.2856261
252	0x3ec1af65	0.37829128
253	0xbedf18ba	-0.43573552
254	0xbdfbc398	-0.12293166
255	0xbf3b26b3	-0.73105925

fc4.bias f4 [4]
0	0x3e0f548f	0.139971
1	0xbedc0175	-0.42969862
2	0x3eef4553	0.46732578
3	0x3d78f151	0.060777012
